models/cifar_10/trained_model/Lenet_parameters.pkl (torch_old, 249602 bytes, 10 tensors)

conv1.weight f4 [6, 3, 5, 5]
000000 1c 00 13 3d e4 18 34 be 76 0c ee bd e3 08 06 bd
       0.035888776 -0.1758762 -0.116234705 -0.03272332
000010 19 41 35 3e 0a 0e f3 bd 1d d2 a8 be 8a 35 aa be
       0.17700614 -0.11867912 -0.32972804 -0.33243972
000020 b3 b5 ba be 4b 0a 22 be 62 a5 56 be 24 dc 88 bd
       -0.3646675 -0.15824239 -0.20961526 -0.066826135
000030 50 ef 8a be 04 dc 4f be 5a 0f 84 be db de 40 3d
       -0.27135706 -0.20298773 -0.25792962 0.04708753
000040 14 7b 17 3d b0 65 26 3e d1 29 9b 3d 37 3e 50 bd
       0.03698261 0.16249728 0.07576335 -0.050840583
000050 0a 61 1d 3e 47 c8 e0 3d 5b cf 63 3e b3 89 c4 3d
       0.15369049 0.109757 0.22247069 0.095965765
000060 7f 66 ea 3c 59 ec f6 3d 8e fc 29 be 74 91 56 be
       0.028613327 0.120567985 -0.16600248 -0.20953923
000070 e0 7f b2 bd bf 2c c1 3c 78 12 90 bc ed 28 46 be
       -0.087157965 0.023580907 -0.017586932 -0.1935155
000080 ea 30 48 be fe fd 4d be 0c fd f5 bd 23 45 25 bc
       -0.19549909 -0.20116422 -0.120111555 -0.010087284
000090 b9 f4 fc bc 57 78 f8 bd d0 e5 03 be cd fe 34 be
       -0.030878412 -0.12132328 -0.12880635 -0.17675324
0000a0 68 41 c9 bd 26 07 19 3e eb 5a e0 3d 14 1d 83 3d
       -0.098269284 0.14944133 0.10954841 0.064020306
0000b0 fd fc f6 bd 2a 2d 1d be 24 25 63 3d ce f3 cb 3d
       -0.120599724 -0.1534926 0.055455342 0.099586114
0000c0 33 19 0f 3e 8d e3 2f bd 90 ab 86 3d 26 2f 1d 3d
       0.13974456 -0.04294162 0.06575692 0.038375042
0000d0 c8 8b 28 bc 40 79 68 3c 14 d7 8e 3e 73 6d ab bd
       -0.010287233 0.0141890645 0.27898467 -0.08370485
0000e0 41 2b 4a be 62 7e 2c be 44 d0 12 be 6f ac d8 3c
       -0.19743063 -0.16845086 -0.1433726 0.02644941
0000f0 76 b4 a2 3d 19 f3 42 3d fa fc 99 bc a4 bd 09 3d
       0.079445764 0.047595117 -0.018797386 0.03362812
000100 e7 28 72 bd 3b a9 39 bd 3e bd 8a 3e f8 70 83 3e
       -0.05912104 -0.045327406 0.27097505 0.25672126
000110 8b 7e a4 3e 06 fb 12 3e c0 f3 f7 3c 28 ab a4 3d
       0.32127795 0.1435357 0.030267596 0.08040458
000120 c2 3d 7f 3e 7f 9e 1e 3e 07 c0 36 3e d1 ec e2 3d
       0.24925902 0.15490149 0.1784669 0.110803254
000130 e6 31 8d 3e 94 8b 64 bd f5 f0 1e 3c e0 bf dc 3d
       0.27577132 -0.055797175 0.009701003 0.10778785
000140 57 c8 90 3e fe 64 94 3e ca 79 3d bd a9 2c 85 be
       0.28277847 0.289833 -0.046258725 -0.26010635
000150 19 45 01 3e eb 1f 80 3e 83 5f 4b 3e 67 7d 2c bd
       0.12624015 0.2502435 0.19860654 -0.04211178
000160 ee f2 82 be e4 25 50 ba c0 a8 26 3e 04 37 4f 3d
       -0.25575966 -0.00079402165 0.1627531 0.050589576
000170 04 c3 ab 39 95 ba d4 bd 82 ce 03 be 7c 18 09 3d
       0.0003276096 -0.1038715 -0.12871745 0.033470616
000180 8d c5 21 be c5 b9 5f bd 97 f4 ea bd fc 33 81 bc
       -0.15798016 -0.054620523 -0.11472433 -0.015771858
000190 9a 06 bc 3d 63 b2 9c bd d2 68 6d be 5c fb c4 be
       0.09180947 -0.07651212 -0.23184517 -0.38473022
0001a0 b3 6e 2a bd 30 25 62 3e 2f 45 3a 3e b2 bc 7e be
       -0.041609477 0.22084498 0.18190454 -0.24876669
0001b0 6e 27 e6 be 14 45 5c be 91 7b 6d 3e 3e 2f 6b 3e
       -0.44951957 -0.21510726 0.23191668 0.2296724
0001c0 d0 aa 92 be 2f 13 92 be 90 80 1b be d2 8a b9 3d
       -0.28645945 -0.2853026 -0.15185761 0.09059681
0001d0 16 21 65 3d c5 85 86 bc a8 50 2f bd 98 c2 a5 bd
       0.055939756 -0.016421208 -0.04280153 -0.080937564
0001e0 c7 75 1b 3e 82 63 7c 3d 99 aa e7 bd 50 6e 24 bd
       0.15181647 0.061618336 -0.11311836 -0.040144265
0001f0 cb 7e fc bd fa 92 fd 3d 6f 28 25 3e 0f 67 86 be
       -0.12328871 0.12381549 0.16128705 -0.26250502
000200 4e 84 9a be 42 cc 89 bd 17 d1 44 3e 33 2a 99 3e
       -0.30179065 -0.06728412 0.19220386 0.29915008
000210 ff d9 76 be 4a 5d b8 be 36 c0 68 3d 99 55 ad 3e
       -0.24106596 -0.36008674 0.05682393 0.33854368
000220 66 1c 60 3e 07 0c 52 bd d9 8d a3 be 07 1a bd bd
       0.21885833 -0.051281 -0.3194416 -0.0923348
000230 50 2c 31 3e 01 3d f7 3d 62 f4 60 bd 5c 6c ab bd
       0.1730206 0.120721824 -0.05492056 -0.08370277
000240 73 05 6a 3d 1a ee 83 3d de 55 5e 3e 99 ba 22 3b
       0.057134103 0.06441899 0.21712443 0.002483046
000250 5e 10 3c 3e 16 7f d3 3d 7c 01 82 3e a4 64 85 3d
       0.18365619 0.10326974 0.25391757 0.06513336
000260 87 a8 b2 3d 61 25 3b 3e 8e c3 58 3c 0f cd c5 bc
       0.0872355 0.18275978 0.013230218 -0.024145631
000270 7d ef 90 be dc b6 1f bc 76 77 82 3e 92 f0 c5 bb
       -0.28307715 -0.009748187 0.25481766 -0.006040641
000280 68 49 21 be bb b5 97 be 23 7e 1e 3e 8f 32 51 3e
       -0.15750659 -0.29630837 0.15477805 0.20429443
000290 04 a2 49 3c ca d6 7c bd 18 a9 bd be d3 97 d6 3c
       0.012306694 -0.061728276 -0.3704307 0.026195442
0002a0 03 89 49 3e c1 2f 6d 3d b0 39 53 be ae 37 97 be
       0.19681172 0.05790687 -0.20627475 -0.29534668
0002b0 3c 37 a6 3d da 0f 62 3e d1 70 60 bd 5c ec ef bd
       0.08116004 0.2207636 -0.05479509 -0.11715004
0002c0 ee 3b 3d be 2d 73 67 be ab 43 93 3d 35 06 38 bd
       -0.18479893 -0.2260253 0.07190641 -0.044927794
0002d0 16 be e4 bd 77 14 af be db a1 df bd bb 69 5e 3e
       -0.111690685 -0.341953 -0.10919543 0.2172002
0002e0 d8 6b 6b 3d d2 81 93 be b5 20 b9 be 6e 1d 35 bd
       0.057475895 -0.28809983 -0.36157766 -0.04421752
0002f0 2a de 76 3e ae 3a 69 3d 9b 9c 66 be 6b 6b e3 be
       0.24108186 0.056940727 -0.22520678 -0.4441789
000300 1c a0 23 3e ff 2d 8f 3e ed 62 9f bc 6b f6 d4 bd
       0.15979046 0.2796478 -0.019456351 -0.10398563
000310 fe af a9 be 8f 71 9e 3d 78 7b 71 3e 3e 7e e4 3d
       -0.33142084 0.07736503 0.23582256 0.11156891
000320 64 58 17 be 3c 8b 46 be f7 85 b0 bd e8 ee 63 3d
       -0.14779812 -0.19389051 -0.08619302 0.05564776
000330 c6 b4 83 3d 97 83 cb bd 67 34 2e be b6 af 2b 3d
       0.06430964 -0.09937208 -0.17012177 0.041915618
000340 bd fd 31 3e d8 b3 c4 3b e8 2a 63 be 65 d4 ad be
       0.1738195 0.0060028844 -0.22184336 -0.33951107
000350 bf cc 9a 3d cd df d7 3e 53 9e bb 3c db 0e dd bd
       0.075585835 0.42162934 0.022902643 -0.10793849
000360 7a 3f dc bd f3 22 91 3e 21 d8 8d 3e d6 ef 93 3d
       -0.10754295 0.28346977 0.27703956 0.072234794
000370 af 40 a8 3d 4f c5 98 bd ec 1e 94 3e d4 06 58 3e
       0.082154624 -0.07459509 0.28929842 0.21096355
000380 1f 64 44 3d 00 c3 cd bc 5b 05 47 3d 09 e6 a6 3d
       0.047947045 -0.025117397 0.04858909 0.081493445
000390 36 60 72 3e 93 b5 bb 3c 0c a3 e9 3e 21 ee 17 3f
       0.23669514 0.02291373 0.45632207 0.5934773
0003a0 b0 90 13 3f 8c 39 e2 3e 61 6f 65 3d 99 de af 3e
       0.5764265 0.4418453 0.056014422 0.34349516
0003b0 36 3e e3 3e b3 38 22 3f 63 20 95 3e 8c 03 03 be
       0.443834 0.63367766 0.29126272 -0.12794322
0003c0 b4 4a c1 be ec 5b 70 be 6d f9 8e be ba c0 c8 be
       -0.37752306 -0.23472565 -0.27924672 -0.3920954
0003d0 1f 68 d6 be 66 44 b5 be 38 34 70 be f2 4a 76 be
       -0.41876313 -0.35403746 -0.2345742 -0.24052027
0003e0 1b 3e 8d be 59 a2 19 be 41 67 02 be 99 1d ba be
       -0.27586445 -0.15003337 -0.127347 -0.36350706
0003f0 ca 61 83 be 45 06 cb bc cd 26 a2 bd 93 a9 76 3c
       -0.25660545 -0.024783263 -0.07917557 0.015055078

conv1.bias f4 [6]
000000 c7 22 39 be 09 e5 7b bd c3 2b 98 be ca 6f 03 bf
       -0.18079673 -0.06149772 -0.29720888 -0.5134245
000010 1d d5 ae 3e 0e 13 ac 3d
       0.34146968 0.08402072

conv2.weight f4 [16, 6, 5, 5]
000000 b7 36 90 3c de 50 ae 3d 53 dd 14 3d 09 26 e1 b9
       0.017604215 0.08511518 0.036343884 -0.00042943683
000010 82 c3 c9 bc b7 d0 12 bc 26 a9 ab bd 2c 0e 63 bd
       -0.024629358 -0.008960894 -0.08381872 -0.055433437
000020 eb 20 16 be e4 2f df bd a3 64 88 bd cf 6d 1a bd
       -0.14660995 -0.10897806 -0.0665982 -0.037702378
000030 bc b5 7b be 90 e1 29 be 5c cc 44 be b0 9d 16 be
       -0.24581045 -0.16589952 -0.19218582 -0.1470859
000040 17 60 01 be d7 c8 d7 bc 73 f0 62 bd 83 7f e1 bd
       -0.12634312 -0.026340885 -0.05540509 -0.11010649
000050 69 d4 22 3d 95 2b ca 3c 68 bf 48 3d 05 95 84 3d
       0.03975335 0.024678985 0.049010664 0.06473736
000060 00 10 36 bd 79 44 40 bd ec bc 16 bd 46 b5 96 bc
       -0.044448853 -0.0469403 -0.036801264 -0.018396985
000070 0e 8e 29 be df 4a 0b bd d8 f3 2e 3d 8b 11 04 bd
       -0.16558096 -0.03400695 0.042713016 -0.032243293
000080 f0 dd a7 3d 7b 00 61 3b 73 fa 68 3d 1c 90 c8 3c
       0.08196628 0.0034332562 0.056879472 0.02448278
000090 48 3d 04 3e 95 2f 77 3d 99 f8 82 bc aa 93 38 3e
       0.12914002 0.060348112 -0.015987681 0.1802508
0000a0 9a e3 54 3d 00 3e f5 3c c0 e0 ad bd ca 0c 60 bd
       0.05197487 0.02993679 -0.08490133 -0.054699697
0000b0 6f cd 2a 3e dd e8 ab 3c 13 40 02 be 1b 1a 3c be
       0.16679929 0.020985061 -0.12719755 -0.18369333
0000c0 3f f3 59 be 0e 0e 82 bd c4 51 b8 bd 2a ce 60 bd
       -0.21284197 -0.06350337 -0.089999706 -0.054884113
0000d0 0b a4 8e 3b f8 98 e9 bd 30 f8 e9 bd ea f1 98 3d
       0.0043530515 -0.114061296 -0.11424291 0.074680164
0000e0 2b 67 a9 bc 1b d6 f4 bd 39 ec 24 be 97 9f 81 3c
       -0.020679077 -0.119549 -0.16105737 0.015823169
0000f0 b3 60 86 3d 5d c4 e8 bb 75 52 dc bd 93 0a b1 bd
       0.06561413 -0.0071034865 -0.10757915 -0.08644595
000100 18 85 d0 3d 86 88 02 3e 33 3c c3 bd 87 2b b8 bc
       0.101816356 0.12747392 -0.095329665 -0.022481693
000110 ff c1 a9 bd e0 47 f6 3d a5 1d 9a bd c4 51 fa bc
       -0.08288955 0.12025428 -0.075251855 -0.030556567
000120 dd 4b 02 3d 8a db 10 be f5 a2 02 3e 22 d9 c3 3c
       0.03181063 -0.14146248 0.12757476 0.023907248
000130 43 80 84 3d 4f 87 92 bd d0 ac a6 3d 77 61 bc 3d
       0.064697765 -0.07154714 0.0813843 0.091982774
000140 71 17 e3 3d 89 fe 4b 3e ed 8c 86 3c f2 7a 18 bd
       0.110884555 0.19921316 0.01642462 -0.037226625
000150 c9 9a 06 3e 2c cc cc 3c 21 dd 04 3d 69 77 19 bd
       0.13144983 0.0249997 0.032437447 -0.037467394
000160 ea 27 b8 3d 77 15 ac 3d 0a 24 f8 3d 28 62 16 3e
       0.08991988 0.084025316 0.12116249 0.14685881
000170 96 b1 fe 3c c9 84 28 3e fb 2d 5a 3c b3 dc dd 3c
       0.031090539 0.16456904 0.013316627 0.027082777
000180 f2 28 3d 3e 4d f9 5f 3e a9 00 27 3e 96 51 e2 3d
       0.1847265 0.21872444 0.16308846 0.110507175
000190 43 cd 8d 3e e3 6f 82 3e 38 e9 11 3e 48 1e 2f 3e
       0.27695665 0.25475988 0.14249122 0.17101395
0001a0 12 fd 5a 3e a1 60 d0 bc e0 28 a5 3d a8 f6 ea bc
       0.21385601 -0.025436701 0.08064437 -0.028682068
0001b0 d0 60 de 3d aa ea 5a bd cd e2 60 bd 1f 30 f3 3c
       0.10858309 -0.05344645 -0.054903794 0.029686032
0001c0 77 c3 96 bd a5 1e 9e 3d 6a 27 99 bc f5 70 74 3a
       -0.07361501 0.07720689 -0.018695552 0.0009324693
0001d0 11 cc a5 bd bb 1d 01 be 93 c9 92 bd 95 33 2e be
       -0.08095563 -0.12608998 -0.071673535 -0.17011864
0001e0 da 71 5b be 1b 9b 00 be d4 38 87 bd e4 61 04 bd
       -0.2143015 -0.12559168 -0.06602636 -0.03231992
0001f0 bf 3d dc bc 7f a1 7c be c9 64 77 be 27 01 36 be
       -0.026884912 -0.24670981 -0.2415954 -0.17773877
000200 f8 2e 5e be 21 40 c6 bd 56 05 f4 bd 05 7f 02 be
       -0.21697605 -0.096802 -0.1191508 -0.12743767
000210 46 e1 53 bd df 4c de bd e5 27 84 bd dc 28 8e 3d
       -0.05172851 -0.10854506 -0.06452922 0.06941387
000220 8a ab 02 3d 99 da e1 bd e7 4d 0d bc b1 a0 90 bc
       0.031901874 -0.11028022 -0.00862453 -0.017654749
000230 16 87 1a 3e 5f 54 ef 3c d7 3a 0d 3e 8f f0 2c 3e
       0.15090594 0.029215036 0.13791977 0.16888641
000240 83 9d fe 3c 93 61 57 3e dc 66 d1 3d 0c e5 22 3e
       0.031080967 0.21033315 0.10224697 0.15907687
000250 4a a8 e3 3d 57 ef 0b 3e b6 ed 58 3b ef 4d 14 be
       0.11116083 0.1366552 0.003310067 -0.14482854
000260 e8 60 3e 3d 0d c4 ac 3c 91 62 1a 3d 23 c3 4e 3e
       0.046479136 0.021089578 0.037691657 0.20191626
000270 1a f1 a0 bd 94 1e e7 3c 21 96 8a bd bf 28 44 bc
       -0.078584865 0.028212823 -0.06766916 -0.011972605
000280 79 7b a2 3e f2 b3 02 3e d3 d8 09 be 0c e2 8b bd
       0.31734827 0.12763956 -0.13461618 -0.068302244
000290 ea cb 9c bd 8f 68 19 3d b8 83 8e 3e 8e dd 11 3d
       -0.07656081 0.03745323 0.27834868 0.03561168
0002a0 fc a5 83 bc 98 ee a8 bd e2 3a 0e be 4e ec 2a 3e
       -0.016070358 -0.08248633 -0.1388965 0.16691706
0002b0 bd 47 a2 3e a1 52 29 3e 72 08 06 3e 26 24 86 be
       0.31695357 0.16535427 0.13089159 -0.26199454
0002c0 31 5f d2 bd 90 78 53 3d f2 b5 99 3b 4a 49 0d 3c
       -0.102720626 0.05162865 0.004690879 0.0086234305
0002d0 6e d9 e5 3d 40 b2 80 be 98 f0 ff 3c f2 42 45 3e
       0.11223112 -0.25135994 0.031242654 0.19263819
0002e0 2d c0 d8 3d 60 b7 86 3e c9 86 ff 3c 14 af 7f be
       0.105835296 0.2631178 0.0311922 -0.24969131
0002f0 3c 47 8b 3d 44 4e 1b 3e 5a cf c8 3d 26 3d 4a 3e
       0.06800696 0.15166575 0.09805174 0.19749889
000300 ea 9c d6 bd 67 b9 df bd 03 b7 05 bd 4a 74 d3 bd
       -0.10479148 -0.109240346 -0.032645237 -0.10324915
000310 bd 82 59 3e 95 ca f4 3d 8f f5 84 be 06 dc 10 be
       0.21241279 0.11952702 -0.25968596 -0.14146432
000320 b8 81 75 3e 13 a0 a5 3c 4c 58 b4 bd 1d 6c ee bd
       0.23975265 0.02021793 -0.08805904 -0.11641715
000330 8e 54 b7 3d 35 8a 58 bd 3b 3a 55 3e ff cd 24 3e
       0.089516744 -0.05286618 0.20822994 0.16094206
000340 93 09 6a bd 04 a6 d6 bc c3 73 23 be 15 dc ba bd
       -0.057138037 -0.02620221 -0.15962128 -0.091240086
000350 2d 7f 5b 3e 8c 10 e2 3d a8 26 74 bd a0 b5 9f bd
       0.21435232 0.11038312 -0.059607178 -0.07798314
000360 44 f3 01 be 7b 30 c5 bd cc 7e 18 3e ef 92 53 3b
       -0.12690455 -0.096283875 0.14892119 0.0032283624
000370 30 55 8a bd ac 10 36 be fd 5f 8d be 04 c5 77 3b
       -0.067545295 -0.17779797 -0.27612296 0.003780664
000380 7b 6e 4a 3d 63 a0 b5 bd 4c 77 94 3d b0 f0 ae bd
       0.04942177 -0.08868482 0.072493166 -0.08542001
000390 28 78 79 bd f0 33 61 bd 25 c1 3a be 78 72 de ba
       -0.060905606 -0.054981172 -0.18237741 -0.001697137
0003a0 44 39 d7 3d ad 67 ea bc 58 38 71 bd b2 59 7b bd
       0.105089694 -0.02861389 -0.058891624 -0.061364837
0003b0 51 53 45 be ca dc a6 3d 18 51 a4 3d 80 74 fa bd
       -0.19270064 0.08147581 0.0802328 -0.12229252
0003c0 1a 29 0e be f3 91 92 be 2c 6a 9e bc 45 38 17 3e
       -0.13882867 -0.28626975 -0.019337736 0.14767559
0003d0 d1 c6 18 3e 1d b2 89 be 72 b4 5d be 5f 62 07 be
       0.14919592 -0.26893702 -0.21650866 -0.1322112
0003e0 60 ab a6 bd 10 d6 28 3d 14 b6 8d bd c8 6c 0e 3e
       -0.08138156 0.04121977 -0.06919494 0.13908684
0003f0 ed e9 ed 3d 11 a3 53 3d cd 98 9c bb eb 3a cf bd
       0.116168834 0.051669184 -0.0047789575 -0.101186596

conv2.bias f4 [16]
000000 18 41 ae be 64 19 0e bd 1c a3 e9 3c ed 98 c7 3c
       -0.34034038 -0.034692183 0.02852016 0.024364913
000010 57 f2 77 3f 42 91 ec be c1 bf bd 3e 8f 7f c3 3e
       0.96854156 -0.46204573 0.3706036 0.38183257
000020 bf d4 ad 3e a8 52 fe 3d 70 e5 bb bd 07 59 09 3e
       0.33951375 0.12418109 -0.09174621 0.13412867
000030 12 40 96 be ec b3 c1 3e da 04 85 be 5b eb 1b bf
       -0.29345757 0.37832582 -0.25980264 -0.60906

fc1.weight f4 [120, 400]
000000 c1 35 c3 3c bb 32 45 bc ee 6f cb 3b 44 c3 ee bc
       0.023829343 -0.012036021 0.0062084114 -0.029145844
000010 46 00 44 3c 67 d1 95 bc 89 d8 8c 3c 69 05 cd bb
       0.011962956 -0.018288327 0.017193096 -0.0062567485
000020 50 f0 fa bb c3 eb 11 3c 2f 3a 08 bd 71 e8 62 3c
       -0.007658042 0.008906308 -0.033258613 0.013849364
000030 a2 25 f5 bb c0 d5 12 bd 7b b1 21 bc 49 3c 4d 3d
       -0.007481293 -0.03584838 -0.009868975 0.05010632
000040 90 58 dd bb 1d 7d 0a 3b b3 a4 2b bd c9 6b 03 bd
       -0.0067549422 0.0021131702 -0.041905116 -0.032085214
000050 0d 89 5f 3d 31 b6 5b bd ee c3 3a bd a6 3f 54 3d
       0.05457406 -0.05364055 -0.04559701 0.051818512
000060 f6 de 3a bc 2f 35 14 3d 19 ba 39 bd 61 ad d3 3a
       -0.011405697 0.036183532 -0.045343492 0.0016149693
000070 0f 6c 68 bc ae d4 c6 3c c2 88 87 3d fe a2 67 3d
       -0.014185919 0.024271335 0.06617881 0.056551926
000080 91 5c 8a bb 1e 9f 3c bd 72 22 98 bc 0b 43 22 3d
       -0.0042224606 -0.046050183 -0.018571112 0.03961472
000090 b6 8e 54 3d 26 f3 29 3d 8d 47 d5 3c b0 86 e6 bb
       0.051893912 0.04149165 0.026035095 -0.007035099
0000a0 6c b7 af 3c f3 0b 46 3c 94 7f b7 3c 19 e5 c9 bb
       0.021449767 0.01208781 0.022399701 -0.006161344
0000b0 01 70 29 bd 5f 22 96 bb 77 0d 20 bd 4b 64 31 3d
       -0.04136658 -0.004581734 -0.03907534 0.043308537
0000c0 d8 b6 4a 3c 68 7a 09 3c a5 e1 ba bb 40 05 93 3c
       0.012372695 0.008391 -0.0057031685 0.01794684
0000d0 ac 29 fc 3a 05 bd ff 3c 92 02 29 bd e4 d1 27 b9
       0.0019238493 0.031218061 -0.041262217 -0.00016004551
0000e0 ba b8 30 bb ca 6d 04 bd 31 f8 2c bd ce 1b f6 3c
       -0.0026965574 -0.032331266 -0.04222888 0.030042555
0000f0 79 4d e2 3c 37 e9 76 bb a9 a6 1b 3d 03 79 2e 3d
       0.027624832 -0.0037675628 0.038000736 0.042595875
000100 fd 6a 8b bc 0b bd c0 bc bd f0 08 3c f2 9f ab bc
       -0.01701879 -0.023527643 0.008358178 -0.020950291
000110 35 e3 83 bb 5b fb 0f 3d f0 a2 0c bd 40 76 3b 3d
       -0.004024888 0.03515182 -0.034335077 0.04576707
000120 21 a9 90 bc 0b b2 1d bd da c7 2e bd f8 ea 11 3c
       -0.017658772 -0.038499873 -0.042671062 0.008906119
000130 c3 f6 04 bd ab f4 57 bd a2 cc 11 bd c2 31 e1 bc
       -0.032461893 -0.052723568 -0.035595544 -0.027489547
000140 ca c3 3e 3c 61 f0 16 bd 70 5d fc bc de cc 17 bc
       0.011643359 -0.036850337 -0.030806273 -0.009265153
000150 e8 4a 61 3c f7 08 29 3d 36 b2 1e bd fc 5a 18 3d
       0.013750769 0.041268315 -0.038744174 0.037196144
000160 0e 19 af bc e8 98 2d bd 9e 1f b0 bc bb 81 e0 bc
       -0.021374252 -0.04238215 -0.021499451 -0.02740561
000170 d9 10 19 bd bb e5 fe 3a 64 55 11 3c cc 83 66 39
       -0.037369583 0.0019447127 0.008870456 0.00021983607
000180 e8 09 32 bb 38 5e 8d 3c 74 35 1a bd 60 3e eb b8
       -0.002716655 0.017256841 -0.037648633 -0.000112172915
000190 45 40 13 3d 47 9a ce 3c 11 42 22 3d 85 4f 15 3c
       0.035949964 0.02522005 0.039613787 0.009113197
0001a0 f0 dd af bc cf f9 41 bc 8b 12 55 3c f6 88 40 bb
       -0.021468133 -0.011839344 0.013004909 -0.002937851
0001b0 10 44 16 bd b6 b1 d5 bc 42 da 4b bd 8e 95 70 3d
       -0.036686003 -0.026085716 -0.049768694 0.058736376
0001c0 9d fc 10 bd 30 95 ca 3c 84 bf fa bc c9 59 36 bd
       -0.03539716 0.024729341 -0.0306089 -0.04451922
0001d0 e7 f8 1d bd e3 16 0e bd 69 94 73 3c 03 1a 52 3d
       -0.03856745 -0.034689795 0.014866927 0.051294338
0001e0 a5 0c 45 bd 7b 76 2e bd 38 85 4f 3c e9 df 62 bd
       -0.048107762 -0.04259346 0.012666039 -0.05538932
0001f0 50 75 ed 3c fa dc d3 bc 25 84 38 bd 35 fb c8 3c
       0.028986603 -0.025862206 -0.045047898 0.024533847
000200 fc 32 0f bd bb 10 48 3c 76 b5 12 3d c7 df 23 bd
       -0.034960732 0.01221102 0.035817586 -0.040008333
000210 13 a6 53 bd 15 7c 39 bd 40 54 2a bd 77 86 11 bd
       -0.051672053 -0.04528435 -0.041584253 -0.035528626
000220 c7 82 33 bd 54 7f bb bc 6e 7b 1c bd 30 62 15 bd
       -0.04382589 -0.022887863 -0.03820365 -0.036470592
000230 17 d4 18 bd 8d 4e 3a 3c 9d 14 38 bd c9 6e 7a bc
       -0.03731164 0.011371267 -0.044941533 -0.015285202
000240 c5 ef 4d 3c 4a b3 d9 3c f9 5c 59 3d 2f 02 c9 3c
       0.012569373 0.02657475 0.05306718 0.024537174
000250 b8 90 19 3d a2 6b da bc df fb 83 bc 36 b7 3f bd
       0.03749153 -0.026662651 -0.016111312 -0.046805583
000260 32 a1 0e 3c 52 2f 5c 3d e5 58 0d bd 1b 44 32 bd
       0.008705424 0.053756066 -0.034508605 -0.04352198
000270 c0 db 10 bd 86 9d 0e 3d 9d d2 2f bd 78 34 2b bc
       -0.03536582 0.034818195 -0.042925466 -0.010449521
000280 24 de 83 bb 22 83 4d bc 3e a3 60 3c 37 d5 8b bc
       -0.004024284 -0.0125434715 0.013710795 -0.017069442
000290 a2 ca 2f bd f1 b2 fa 3b 72 7f d5 3c 6a e4 c1 3c
       -0.042917855 0.007650726 0.026061747 0.023668487
0002a0 e1 9d 2f bd 87 7e 5f bd 09 31 75 3c fc 82 be bc
       -0.042875174 -0.054564025 0.014965304 -0.023255818
0002b0 5d 88 39 3d df 37 0a bd 06 21 c9 3c bf 73 24 bb
       0.04529606 -0.03374469 0.02455188 -0.0025093404
0002c0 8a 21 db 3c c8 07 40 bc 34 ca 2c 3d c0 3d 58 bc
       0.026749391 -0.011720605 0.042185023 -0.013198316
0002d0 dd d3 89 3b a5 c6 0e ba 11 bb 30 bc 1b 81 0f 3c
       0.0042061643 -0.00054464705 -0.010786788 0.0087588085
0002e0 45 a4 e7 bc fa 49 42 bd b0 45 01 bd ed 92 89 3c
       -0.028276572 -0.04743383 -0.0315606 0.016793692
0002f0 3a 04 8b 3b 4f b7 b2 3c 15 a1 89 3c 6a 9d 3d bd
       0.004242447 0.021815924 0.016800443 -0.0462927
000300 28 27 87 3c e6 e2 11 bd 10 42 34 bd 51 f2 a7 bc
       0.016498163 -0.035616778 -0.044008315 -0.020501288
000310 f0 ac d4 3c 27 ba ea 3c 3a 13 e4 3c bd 32 50 bb
       0.02596137 0.028653217 0.0278412 -0.0031768524
000320 21 ef 2c 3d 1a fe da 3c 0b 93 16 bd 43 e0 06 3d
       0.04222024 0.026732493 -0.036761325 0.032928716
000330 0d 09 0b bd 1e 2c bd 3c 31 09 19 bd 3c 8e 72 bb
       -0.03394418 0.023092326 -0.03736228 -0.0037011048
000340 6f 29 bb 3b ff 00 b9 bc d2 57 0d 3d ba a3 85 3d
       0.0057117264 -0.022583483 0.03450758 0.06525369
000350 01 1b 51 3d 30 ae 39 3d 27 15 93 bb c9 34 69 3d
       0.051051144 0.045332134 -0.0044886055 0.056935105
000360 ad e2 e3 bc 6b d6 f9 bb 58 ac b0 bb d5 20 b8 bb
       -0.027818048 -0.0076244376 -0.0053916387 -0.0056191483
000370 c9 5f 40 3d f0 7c 2e bc a4 31 39 3d 9c 28 8c 3d
       0.046966348 -0.010649905 0.045213357 0.06843683
000380 58 ee 39 3d db 0d bd bc 4e b2 89 bc e4 f0 22 3d
       0.045393318 -0.023077896 -0.016808655 0.039780512
000390 5f 3d 4f bd 24 6e 5d bd 68 4b b8 3c 37 be 7d bc
       -0.050595637 -0.054060116 0.022496894 -0.015487245
0003a0 e7 9a 81 3b 79 e3 ee 3a 38 4d 81 bc 32 95 85 bc
       0.0039552334 0.0018225751 -0.015783891 -0.016306493
0003b0 9b 88 d9 3c a3 75 48 bd 87 86 86 3c b2 44 53 bd
       0.026554396 -0.048940312 0.01642157 -0.051579185
0003c0 71 fd a8 bc a8 31 82 3b e6 af c3 bb 6d a7 d2 3c
       -0.020628663 0.0039732046 -0.0059718965 0.0257146
0003d0 50 48 46 bd bc ea ea 3c 23 56 83 3c 7f 3e b4 bc
       -0.048408806 0.028676383 0.016032284 -0.022002457
0003e0 1f 1b aa bc 25 99 3c bd 3c 3b ba 3c 55 e1 10 3d
       -0.020764885 -0.046044488 0.022733323 0.035371143
0003f0 f5 af 1f 3d a7 8f 02 3d b1 88 01 bd aa d9 23 3d
       0.038986165 0.03187528 -0.0316245 0.040002503

fc1.bias f4 [120]
000000 13 9b 01 3d d8 24 1e bd fb ac 24 3c 20 a9 db 3c
       0.03164203 -0.038609356 0.010051007 0.026814044
000010 e8 d1 59 bd 83 4a 39 bb 29 66 98 3a c6 81 9f bd
       -0.053178698 -0.0028273172 0.0011627126 -0.07788424
000020 71 7a 12 3e 3a 1a 19 be 65 ed 8e 3d b8 47 c6 bd
       0.1430452 -0.14951411 0.06978873 -0.09681648
000030 42 e9 f0 bd 48 62 c7 bd 73 ae 12 bc db c8 6c bd
       -0.117632404 -0.097355425 -0.008952725 -0.05780874
000040 88 6b ef bc 27 99 94 3d 62 cb 82 3b af d4 4c 3d
       -0.02922608 0.07255774 0.0039915303 0.05000752
000050 fe 0d 30 3c c3 5b eb bd 8c a4 bf bd f7 b6 6f bd
       0.0107455235 -0.114921115 -0.09357557 -0.0585241
000060 ad 94 09 3d ac 1c 40 3d 0a f8 ee 3c 56 dd 61 3d
       0.033589054 0.046902344 0.029171009 0.055142723
000070 79 17 7f 3d 32 49 88 bd 0f 44 88 3e 46 2b 54 3e
       0.062278245 -0.06654586 0.26614425 0.20719633
000080 f7 1e a7 bd 94 ca 55 3d ff 9f 7e 3d 24 f2 96 bc
       -0.08160203 0.052195147 0.062164303 -0.018426009
000090 e4 72 0d 3d 19 9f b1 3d 6a 54 c8 bd 8e c0 83 3d
       0.034533396 0.086729236 -0.09781726 0.06433211
0000a0 d5 5b 9d 3b c2 1c a5 3d 8a e2 2a bd 30 5f f8 3c
       0.004802207 0.08062126 -0.04171995 0.030318826
0000b0 45 e3 69 bd 80 e4 62 ba 18 97 a5 3d a6 4e 40 3e
       -0.057101507 -0.0008655265 0.080854595 0.18780002
0000c0 17 8f 71 3d fd 99 3b bd 7b 35 23 bc 67 2d 62 3e
       0.05897435 -0.04580115 -0.009961481 0.22087632
0000d0 d6 49 66 3d ef 75 db 3c f1 75 18 3e b5 ca 4e bd
       0.05622276 0.026789634 0.14888741 -0.050486285
0000e0 84 9f 3f bb 13 74 72 bc 69 5d 5a 3d de 82 bc bc
       -0.0029239366 -0.014798182 0.05331174 -0.023011621
0000f0 b0 c5 a2 bd 0d fd 0f 3d fb ee 45 3d 9c 42 c7 3d
       -0.07947862 0.035153437 0.048323613 0.097295016
000100 2f cc 08 bd 33 ae 80 bd 8a 21 19 bd f7 1a e2 3c
       -0.03339785 -0.06283226 -0.0373855 0.027600748
000110 11 ce 13 3e da a1 64 3c 6f 50 dc 3d da 62 8b bc
       0.14434077 0.013954604 0.10757529 -0.01701491
000120 32 ff d2 3c da a0 3a 3d 1d 68 a6 bc 3f c1 63 bd
       0.025756452 0.045563556 -0.020313317 -0.055604216
000130 11 3e 90 3c 91 42 cc 3d 05 0d 55 bc a6 1d 5b bd
       0.01760772 0.09973634 -0.013003592 -0.05349507
000140 91 4f 88 3e b9 e3 27 3e 99 57 2d bd cb 0c d3 3d
       0.26623204 0.16395463 -0.042319868 0.103051744
000150 a1 14 85 bd 47 75 48 3d 47 8e 0f bd 13 7e 04 3d
       -0.06498075 0.04893997 -0.035047796 0.032346796
000160 2f d1 08 bd 7f 1f 2e bc 7c 59 01 3d 3d 8e 72 3c
       -0.033402618 -0.010627626 0.03157948 0.01480442
000170 9f e0 ff bc 4e 9a b1 bd 55 bd 3b bd e0 a2 d4 3c
       -0.031235037 -0.086720094 -0.045834858 0.025956571
000180 f4 f1 0d 3d 3b 8f a1 3c ad 4e 45 bd 07 74 08 bd
       0.034654573 0.019721618 -0.048170734 -0.033313777
000190 a7 da 77 3c 6f 7a 1d 3c 5b 81 a5 3b 18 d1 95 3d
       0.015127814 0.00961171 0.0050508208 0.07315272
0001a0 5f dd 5e 3d 12 14 0b 3e c7 c4 80 bd cb 70 1a 3e
       0.054410335 0.13581875 -0.06287532 0.1508209
0001b0 76 73 02 3d 63 37 a1 bc e2 7f 04 3e 78 d6 83 3d
       0.031848393 -0.01967973 0.12939408 0.06437391
0001c0 67 e1 23 bc ef a3 fb 3d 8f 93 2f bc de 85 34 3e
       -0.010002471 0.12287127 -0.010716333 0.17629191
0001d0 9b d2 c9 3d dc ff 5c bc a7 37 0d bd 5b a1 94 3d
       0.09854623 -0.013488736 -0.034476902 0.072573386

fc2.weight f4 [84, 120]
000000 a7 1a 9f bd fd 8c 79 3d d6 a1 e9 bd 7d f9 23 bc
       -0.077687554 0.060925473 -0.11407821 -0.010008213
000010 f2 3f 94 3c 83 ea 2f bc de 8f cd bd b3 e9 81 3d
       0.018096898 -0.010737064 -0.10037206 0.06343403
000020 4a 56 b6 bd 8d 53 7b 3d 2d 74 4f bd f9 84 a5 3a
       -0.08903177 0.061358977 -0.050647903 0.001262813
000030 32 42 6c bd d4 93 92 bd 72 bb 2a 3c f8 95 e8 3c
       -0.057680316 -0.07157102 0.010420667 0.028391823
000040 cc 9b 65 3c 84 af e4 3c 47 17 10 3d 96 06 1e 3d
       0.014014196 0.027915724 0.03517845 0.0385805
000050 5d fe 3b bd ba d3 f6 bd 11 c6 3d 3c 4b 1c aa bd
       -0.045896877 -0.120521024 0.011582867 -0.08306178
000060 c2 4a d2 3d 50 a7 9b 3d 4a 4c f3 bd fa 9a 4c 3d
       0.10268165 0.07600272 -0.11879785 0.049952485
000070 8d 50 f1 3b a7 60 d1 3d 54 f7 5e bd 37 f6 3d bd
       0.0073643387 0.10223513 -0.05443509 -0.046377387
000080 96 21 2f bc 3c da 64 bd c4 da 44 3d 68 72 81 3c
       -0.01068916 -0.055872187 0.048060194 0.015801623
000090 7f d2 bb 3c 6f 73 86 3d c0 c9 93 bd 11 22 6e bd
       0.02292752 0.06564986 -0.07216215 -0.058137957
0000a0 8e e7 7b bd 54 29 49 bd 9d 67 f5 bc f9 2f 9b 3d
       -0.061500125 -0.04911168 -0.029956633 0.075775094
0000b0 b3 c5 13 bd 1b 48 bd 3b 41 dc 5d bc 58 d7 a2 bd
       -0.036077213 0.005776418 -0.013541282 -0.0795123
0000c0 94 48 14 bd 9f b6 95 3d ba af 7d 3d ae 2d c5 3d
       -0.03620203 0.07310223 0.061935164 0.09627853
0000d0 e5 6f 72 3d b5 42 ce bd 4a 99 77 3c 09 32 a4 bd
       0.059188742 -0.10071317 0.015112231 -0.08017356
0000e0 f7 f8 81 bd e7 99 9d 3d 7a 4e 9d 3d 1b 57 86 3d
       -0.063463144 0.0769537 0.07680984 0.06559583
0000f0 80 bd 03 be 65 8d 3a bd 7e 46 35 bd 9c 66 c9 bc
       -0.12865257 -0.045545 -0.04425668 -0.02458506
000100 ca f2 c0 bc 0a bc b5 3d 16 85 93 3d e7 34 eb 3b
       -0.02355327 0.08873756 0.072031185 0.0071779373
000110 63 c7 ee bd f8 c4 8b 3c d6 91 d8 3d c1 98 bf bd
       -0.11659124 0.017061695 0.10574691 -0.09355307
000120 c3 70 95 3d 25 47 96 bb 0f 72 98 3d c8 04 72 3c
       0.07296898 -0.004586118 0.0744363 0.014771648
000130 51 a6 78 3d fd 40 1b 3e 5d 8d 86 3d 75 c5 71 bd
       0.060705487 0.1516151 0.06569932 -0.0590262
000140 aa 93 a9 3d c6 be 3e 3c a0 23 f5 bd 1f 65 88 3d
       0.08280118 0.011642164 -0.119696856 0.06659912
000150 5f 53 8c 3d 0c f3 0d bd e8 ca 46 3d f7 97 d8 3c
       0.06851839 -0.034655616 0.04853335 0.02643965
000160 58 35 ad bc bf 19 7a bd f1 b6 9d bc 1d 14 f4 3d
       -0.0211436 -0.06105971 -0.019252272 0.11917899
000170 e4 3c 9f bd 1f 7c 3e bd 41 bf 34 bd 3c fe 2f 3d
       -0.07775286 -0.04650509 -0.044127706 0.042967066
000180 77 00 16 bd 8c 7d e8 3c 90 f5 32 bd 8b f8 68 bd
       -0.036621537 0.028380178 -0.043691218 -0.056877654
000190 b2 8c b9 39 54 f7 9a bd 4c 20 af 3b 88 61 df 3c
       0.00035390776 -0.07566705 0.0053444263 0.027268186
0001a0 fa e2 0d bd 05 0b a5 3d d5 35 5f 3d 5b 0b 66 bc
       -0.03464029 0.080587424 0.054494698 -0.014040793
0001b0 5f 71 ac 3c 1b c7 ff bb 73 e8 dd 3c c5 f5 80 bd
       0.021050153 -0.0078057176 0.02708838 -0.06296877
0001c0 46 70 59 bd dc 87 87 bd e5 42 22 bd db fb c2 bd
       -0.053085588 -0.0661771 -0.039614577 -0.09520694
0001d0 8b 5c 94 bd bd f3 7f bd 56 27 39 bd 2b 2d 69 3d
       -0.07244214 -0.062488306 -0.04520353 0.05692784
0001e0 7b 72 bc 3d d4 20 c1 3c 40 7c de bd 6c 89 c7 bd
       0.09201523 0.023575224 -0.108635426 -0.09743008
0001f0 f2 88 56 3d 28 12 32 bc fc 30 b8 bd e2 11 91 3c
       0.052376695 -0.010868587 -0.08993718 0.017708723
000200 06 02 36 3c 94 0d 6c 3c 6f 8c c6 bc c0 da 1e be
       0.011108881 0.014407534 -0.024236886 -0.15513134
000210 82 7f 1e be ec 73 c7 bd 61 78 c6 bd 60 79 4a 3d
       -0.15478328 -0.09738907 -0.09690929 0.04943216
000220 a3 01 86 3d ad 45 57 bc f0 21 f9 bd 53 15 2d 3d
       0.06543281 -0.013139171 -0.12164676 0.042256664
000230 98 2e bf bd 50 6e a3 3a 19 62 ef bc a6 cb a9 bc
       -0.09335059 0.0012468789 -0.029221581 -0.02072699
000240 cd 9a 17 3d 0c 39 1a bd 09 5f a5 3d fd af 01 3d
       0.037012864 -0.03765206 0.08074767 0.031661976
000250 63 da 96 bd 0b 20 76 3d 74 ce ae 3b dc d0 21 3e
       -0.07365873 0.060089152 0.0053346697 0.1580233
000260 f5 e4 a2 bd 93 32 0c bd be bc 58 bd 5d 1e 2f 3d
       -0.07953826 -0.03422792 -0.052914374 0.042753566
000270 41 d8 5b 3d 3a d2 76 3d 6b 92 82 bd 74 6e 20 bd
       0.053673033 0.06025908 -0.06375583 -0.039167836
000280 08 d0 a3 3c f5 55 b1 3d 6d 3e 77 3d f8 64 c5 bd
       0.019996658 0.08658973 0.06036227 -0.09638399
000290 3b 67 90 bd 48 01 1f 3d 95 5c d6 bb 94 00 4c 3d
       -0.0705094 0.03881958 -0.0065417984 0.04980524
0002a0 f9 de c7 3d 46 fa 0c 3d 2a 04 bb bd b2 1c 4a 3d
       0.097593255 0.034418367 -0.091316536 0.049343772
0002b0 4a da 99 3c 95 5f 9f 3d d3 1b c1 3d 6e c6 73 3d
       0.018780846 0.07781903 0.09429135 0.05951541
0002c0 fd f9 ad bc 01 ad de bd a8 20 27 bc a1 2e 11 bd
       -0.021237368 -0.108728416 -0.010200657 -0.03544486
0002d0 a6 76 86 3d 09 96 97 3c ba 86 1d 3d 48 5a bd bc
       0.06565599 0.01850416 0.038458563 -0.023114339
0002e0 8d 47 8d bc 41 9e a5 b9 5e fe f5 bb 75 9f 2a bc
       -0.017246032 -0.0003158916 -0.0075071296 -0.010413994
0002f0 0c 72 66 3d b9 b8 2f bd 0b 8a 60 bc fc b0 a1 3d
       0.056261107 -0.042900775 -0.013704787 0.07895085
000300 f1 cd 43 bd b0 13 a7 3d c3 73 9b 3d 3f 2c aa 3d
       -0.047803823 0.08158052 0.07590439 0.083092205
000310 9e db 21 bd d8 43 f1 bb 8f 85 f6 bb 2a 80 e9 bc
       -0.039516084 -0.007362824 -0.0075232456 -0.028503496
000320 a7 0d 2a 3d d3 14 01 3e 79 fa 17 3e 47 ec 8c bd
       0.041516926 0.126056 0.14841641 -0.06881004
000330 9a f9 50 3d a8 21 24 bd 57 6c d0 bc e1 48 88 bd
       0.05101929 -0.04007116 -0.025442285 -0.066545255
000340 09 2a 02 be f2 bc d2 bd f9 cb e1 bc d9 1d 59 bd
       -0.12711348 -0.10289945 -0.027563082 -0.05300698
000350 ba e6 58 bd e2 e9 d9 bc 64 31 a5 bd 68 61 1b 3c
       -0.052954413 -0.026600782 -0.08066061 0.009483673
000360 5e 99 53 bd 53 6e 30 3e 6f c0 40 3d 90 12 b3 bc
       -0.051659934 0.17229585 0.04705852 -0.021859437
000370 a5 b4 66 bd ad 68 ec bb 27 d5 8a bc 01 04 53 3d
       -0.05632462 -0.0072146268 -0.016947342 0.05151749
000380 38 5f 7e 3d 4b b3 b8 3d 21 11 73 bc ba 05 24 3d
       0.062102526 0.090185724 -0.014835627 0.040044524
000390 71 26 5a bd e7 ca 87 bd a5 61 a9 3c 1e 22 3e 3d
       -0.053259317 -0.066304974 0.020676443 0.046419255
0003a0 98 a1 ee bc b0 f7 dc bc 99 36 67 3c 40 3b 5d bd
       -0.029129788 -0.026973575 0.014112138 -0.054011583
0003b0 24 5d a9 3d d2 89 17 3c cb 78 34 3c 05 c1 11 3e
       0.08269718 0.0092491675 0.011015127 0.14233787
0003c0 7a 9a 40 bd 5d c2 77 bd 57 11 fd 3d de 88 c0 bd
       -0.04702232 -0.060488094 0.12356823 -0.09401105
0003d0 ae 09 9b bd 98 65 47 3d ff c1 56 3d 22 6a 22 bd
       -0.07570206 0.04868087 0.052431103 -0.039651997
0003e0 07 6d 03 3e 62 3a 2d 3d cc 01 54 bd 17 ed b7 3d
       0.1283456 0.042292006 -0.051759526 0.08980768
0003f0 c0 3a 0a 3d 91 70 47 bd 0b 2b 65 bd 8f 67 39 3d
       0.033747435 -0.048691336 -0.055949252 0.045264777

fc2.bias f4 [84]
000000 b4 09 46 3e 19 5e d6 3d 4a 1c fb 3d ad 9e 13 3d
       0.19339639 0.104671665 0.12261255 0.036039997
000010 4d 4e 24 bd b3 33 1b 3e fb 12 a4 3e 39 69 66 3d
       -0.040113736 0.1515644 0.3204573 0.056252692
000020 97 9a 73 be 6a 6b 29 3d 69 80 fb bb fa 14 8d bc
       -0.2378944 0.041362204 -0.00767522 -0.017221916
000030 df 2c ae bd 05 9b 17 3d 8d 79 a9 3e 2c f2 4c 3e
       -0.08504652 0.037013073 0.33100548 0.20014256
000040 e8 1a 34 3d c3 40 0d 3e 5e 86 42 3e d8 48 7e 3e
       0.043970972 0.13794236 0.1899657 0.24832475
000050 bb 0f 62 3c 52 6e 5d bc 3b 50 40 3c b6 14 db 3d
       0.013797696 -0.013515072 0.011737878 0.1069731
000060 5c 25 d9 3d dc 4a 64 3e 6b de 94 bc 00 ed eb 3d
       0.10602829 0.22294182 -0.018172463 0.115198135
000070 38 e9 6f 3d 4b b1 24 3d a8 df 81 3d 5e 30 6e 3b
       0.058572024 0.040208142 0.06341487 0.0036344747
000080 59 4b ab bd 51 d8 39 3b 50 b0 89 3e bb d7 ff 3d
       -0.08363981 0.0028357694 0.26892328 0.12492319
000090 0f 92 7e 3e 74 e9 5e 3e fc 40 3b 3e 50 aa 84 3e
       0.24860404 0.21768743 0.18286508 0.25911188
0000a0 3d e1 c1 bd c2 5c 46 bd 87 4f a3 3e 3c 6d 0c 3e
       -0.09466789 -0.048428304 0.31896612 0.13713545
0000b0 de a6 ec 3c 5b f4 9b bd 8c 5a c9 3d 95 06 8f 3e
       0.028888162 -0.076149665 0.098317236 0.2793471
0000c0 43 8c a6 3c e5 a1 06 bd e1 70 2f 3e 44 cd a8 3c
       0.020330554 -0.03286924 0.17132904 0.02060569
0000d0 a2 6e d7 bd bd 47 d4 3d a4 08 36 bd 98 01 f8 bd
       -0.105191484 0.103652455 -0.044441834 -0.12109679
0000e0 72 6e b4 3d 7b 44 bf bd 8c 9d 20 3e 82 58 da bc
       0.08810128 -0.093392335 0.156851 -0.026653532
0000f0 91 3f f2 3b 27 14 e9 3d 2c 5a ef 3e c1 d8 10 3c
       0.0073928316 0.11380797 0.46748483 0.008840741
000100 84 53 43 3e bf e5 39 bd e4 fe 9b bd 8a 0b f8 3d
       0.19074827 -0.04538512 -0.07616976 0.12111576
000110 06 ef 6e 3e 46 d8 c9 3d 3b 9b 41 bd 86 f9 02 be
       0.23333368 0.09855704 -0.04726718 -0.12790498
000120 34 af c5 3d 68 7d b0 3d 85 f4 bb 3d a2 30 50 bd
       0.09652558 0.08617669 0.09177498 -0.05082763
000130 09 9c 4b ba 22 42 80 3d 4a 2f ae bd 47 86 36 3e
       -0.00077670865 0.06262614 -0.085051134 0.1782466
000140 5c 91 a9 3d 6f bc 1a be 3e 33 8b 3d 08 8d e6 3d
       0.08279678 -0.15110944 0.06796883 0.11257368

fc3.weight f4 [10, 84]
000000 99 33 08 be 60 e9 33 3e 39 d9 a7 3d 13 3d b4 bd
       -0.13300933 0.17569494 0.08195729 -0.088007115
000010 8d 11 53 3d 4e 10 2c 3e 84 3d df bd d7 09 9c 3d
       0.05153041 0.16803095 -0.10900405 0.07619064
000020 ea 67 55 3d 75 d9 70 3c 21 d2 ea 3d 57 3b 0f 3d
       0.052101053 0.014700283 0.1146586 0.0349687
000030 5e 12 94 3d a0 a9 ca bc a8 21 39 be 8a 58 05 3e
       0.07230066 -0.024739087 -0.18079245 0.13022056
000040 62 53 04 be 27 0a 57 3e 73 5e 5b bb 5e 26 20 3e
       -0.12922433 0.20999967 -0.0033473044 0.15639636
000050 23 ae 85 bd 04 6d 9a 3c a4 5c 5d 3e 04 52 30 3e
       -0.065273546 0.01885081 0.21617371 0.17218786
000060 f1 c7 93 bd 4e 7e 90 be da c3 88 bd a0 37 e2 bd
       -0.0721587 -0.28221363 -0.06677981 -0.11045766
000070 ac d7 2c 3e 97 1b cf bc ee bb 94 bc 1d 1a 10 3e
       0.16879147 -0.02528171 -0.018156018 0.14072461
000080 a2 4d c0 bc 7d 52 0f bd dc 6d 5a 3e a3 1c 3b bc
       -0.023474518 -0.034990776 0.2133097 -0.011420402
000090 67 e0 96 3e 98 d2 8b 3e 99 0f 30 bd 0f 18 aa bd
       0.2946808 0.27309108 -0.042983625 -0.0830537
0000a0 b0 7f 66 3d 28 40 28 bd fe 45 94 3d db b1 e3 bd
       0.056274116 -0.04107681 0.072399125 -0.111179076
0000b0 45 99 de bd 12 eb 0d be ee 88 06 3e b2 c2 11 3e
       -0.108690776 -0.13859203 0.13138172 0.14234427
0000c0 89 01 c9 bd c1 df 66 bd 22 8b 80 be 1a 60 87 ba
       -0.09814746 -0.056365732 -0.2510615 -0.0010328323
0000d0 99 54 18 3e 0c f6 65 3e 91 6f b6 bc 95 e7 86 3d
       0.14876021 0.2245714 -0.022269996 0.065871395
0000e0 13 d0 17 3e af c1 f5 3c a4 cb 72 3d 16 ac 3e bd
       0.14825468 0.029999582 0.059276238 -0.046550833
0000f0 c9 e3 29 3d 9c 47 13 bd 73 a7 2e be b0 8e c1 bd
       0.041477 -0.035956964 -0.17056064 -0.094510436
000100 db 44 d1 bd e1 8f 53 bd 49 60 70 bd c2 9b c9 bd
       -0.10218211 -0.051650885 -0.058685575 -0.098441616
000110 19 7a 17 be d3 cf 8f 3d 16 36 a9 3d 89 c0 d2 3c
       -0.1479267 0.07022061 0.08262269 0.025726574
000120 99 81 df bd 8e d9 a4 3c 1f 61 b7 3d c0 be 10 be
       -0.10913391 0.02012327 0.08954071 -0.14135265
000130 c2 0d 60 3c 63 cd ec bd ba 10 c2 bd 3d 2c 24 be
       0.013675155 -0.11562612 -0.094758466 -0.160325
000140 3a 9c 21 3e 7d fa e1 3b fc 04 a2 3c 45 03 12 bd
       0.15782252 0.0068963156 0.019777767 -0.03564765
000150 32 24 95 be d6 68 f8 bd 4e 89 2c 3d 80 1d 47 3d
       -0.29129177 -0.12129371 0.04212313 0.048612118
000160 ba 5f 72 3c 9d a0 08 3e 3a 57 a3 bc e8 f2 a6 bd
       0.014793331 0.13342519 -0.019939054 -0.081517994
000170 42 c5 b0 3e 0f 5f 36 3d e2 c4 1a 3e 1a 63 8a bd
       0.34525496 0.04452425 0.15114167 -0.067571834
000180 6b 17 12 3e a9 81 82 bd 56 ed 22 be 82 1d 99 be
       0.14266746 -0.06372387 -0.15910849 -0.29905325
000190 ee 83 81 bd 09 eb b9 3d 5d 1c fc 3b 46 5e d1 3d
       -0.06323992 0.090780325 0.007693811 0.10223059
0001a0 8b 66 09 be 84 d5 8f 3e d1 94 29 be a6 08 83 3e
       -0.13418023 0.28092587 -0.16560675 0.25592536
0001b0 73 c3 95 3d 57 1c bc bb d8 61 6a 3e 6a 3e dc bd
       0.073126696 -0.005740683 0.22888887 -0.10754092
0001c0 71 83 39 3e 81 40 8c 3c ab de 12 3e 93 58 6b bc
       0.18116547 0.017120602 0.14342754 -0.014364379
0001d0 2e 7a d6 3d d3 ad c8 bb bb 03 ff bb c7 db ea bd
       0.10472523 -0.006124237 -0.007782427 -0.114677005
0001e0 c5 5b d9 bb a2 89 02 3a b2 d5 f9 bc 83 ee 50 bd
       -0.0066332542 0.00049796153 -0.030497406 -0.051008713
0001f0 df 44 ae 3d 75 3f a8 bc ba 9f 20 be 2d 41 db bd
       0.0850923 -0.020538071 -0.15685931 -0.10705791
000200 43 3c f2 bc c6 4d 5a 3e b5 3c a4 be 94 22 9c 3d
       -0.02956975 0.2131873 -0.32077566 0.07623783
000210 bb 6f 32 bd f3 12 cd 3c 6e 75 5a 3c 5c 44 4b bd
       -0.043563586 0.02503345 0.0133336615 -0.04962574
000220 2b 24 4b bd f9 59 ae 3d 9f aa d0 3c cf 0b 1c bd
       -0.04959504 0.08513255 0.025471983 -0.0380972
000230 71 ee 33 be 6d 6e e0 bd 77 c6 30 bd ce 16 15 bb
       -0.17571427 -0.10958562 -0.04315802 -0.0022749188
000240 7d 78 fb bc 2b b0 a9 bd c2 ab d7 be a5 da bd 3d
       -0.030697102 -0.082855545 -0.42123228 0.09270219
000250 63 18 a6 bc 3c 6d 80 bd f4 c1 d6 3d 30 6e ab 3c
       -0.0202753 -0.06270835 0.104862124 0.020926565
000260 52 0b 15 be ec 9d 6a be ea 73 ad 3d 4a 5a 9b bd
       -0.145551 -0.22911805 0.084693745 -0.07585581
000270 23 a0 1e be b6 79 91 bb 80 68 14 bd 1b f7 5d be
       -0.15490775 -0.004439558 -0.03623247 -0.21676295
000280 59 e1 14 3e 74 ad bb 3e 48 4a b3 3d a8 71 7f bd
       0.14539088 0.36655772 0.087544024 -0.06236425
000290 31 03 2d 3d c1 1b 45 3e f0 59 5e bd f5 92 8f 3d
       0.04223937 0.19248869 -0.05428499 0.07010452
0002a0 e7 b2 5d 3d 09 7d 0f 3d 2c 4b 92 3d 9f 97 20 3e
       0.054125693 0.035031352 0.07143244 0.15682839
0002b0 35 5a 16 3d b3 75 a6 bd 04 60 3f bd 78 48 4c bd
       0.036707122 -0.08127918 -0.046722427 -0.0498738
0002c0 5d 54 16 3d 9c 86 14 be b5 02 00 be 26 6d 7f 3d
       0.03670155 -0.14504474 -0.12501033 0.06235995
0002d0 6a bc 16 3d d0 28 a3 3d cd 9a 8d 3e c3 d5 76 3d
       0.03680078 0.07966769 0.27657166 0.060262453
0002e0 2f 0b 24 3e 08 e6 8a bd e6 9c 65 bd 74 ee 09 be
       0.16019891 -0.06782156 -0.056057833 -0.13469869
0002f0 fe f9 3b 3e ee 88 20 be bc ee 2f 3e 40 55 aa bd
       0.18357083 -0.15677235 0.17180914 -0.083170414
000300 e9 3f e6 3d ac 78 c8 bd 1d c4 1e be f6 10 79 3c
       0.11242659 -0.09788641 -0.15504499 0.015201798
000310 4a 1b 8a be 29 e6 b8 bd ea b3 85 bd ef 87 f0 3d
       -0.26973945 -0.090282746 -0.065284565 0.11744677
000320 c9 5b 86 bd e3 71 ac 3c 22 6f ac 3d fb 08 23 3e
       -0.065604754 0.0210504 0.084196344 0.15921395
000330 eb dd 5b 3e 81 38 1b 3d e4 67 44 3d f6 a1 ae 3d
       0.21471374 0.037895683 0.04795064 0.08526985
000340 25 4f 79 bc b6 f8 06 be 95 77 ae bd 08 f8 be 3c
       -0.015216623 -0.13180813 -0.08518902 0.02331163
000350 f1 10 17 be 59 17 28 3e 85 0a a4 3e d9 55 09 be
       -0.14752556 0.16415156 0.32039276 -0.13411655
000360 9b 40 88 bd 68 1e 26 3e 0d 28 5a 3e da 8d 83 bd
       -0.066529475 0.16222537 0.2130434 -0.064235404
000370 ea e7 5b bd dd 6a 3c bd f1 94 32 be 9f 82 15 3e
       -0.053687967 -0.04600035 -0.17439629 0.14600609
000380 0b a8 dc 3c 5e 0c 42 bd a4 40 03 3d 74 ef 17 3e
       0.026935598 -0.047375076 0.032044068 0.14837438
000390 f4 55 06 bd e6 59 04 3e 24 b8 ec 3d d6 86 61 3d
       -0.032796815 0.12924919 0.115585595 0.05506023
0003a0 ed fa ed bd fc c3 63 3d 18 54 bb bd fc 07 7b be
       -0.11620126 0.055606827 -0.09146899 -0.24514765
0003b0 6c e2 1c 3e 77 f0 ac 3c b0 3b b6 3c de 94 e0 bd
       0.15320748 0.021110756 0.022245258 -0.10965894
0003c0 81 cc 3c bd d8 a1 ab 3d c1 cd d0 bd fe 3b b1 3d
       -0.046093468 0.083804786 -0.101954944 0.08654021
0003d0 6e 26 98 bd e0 a9 b2 bc b8 1c fd 3d 67 7c b4 bd
       -0.07429205 -0.021809518 0.12358993 -0.0881279
0003e0 b5 78 44 3d 43 ec 6c bd ea d2 bf bc 24 ac 4d bd
       0.047966678 -0.057842504 -0.023416001 -0.050212994
0003f0 a1 cd 52 3d 21 d2 33 be c4 6b 3e bd 1f 52 b5 3c
       0.051465634 -0.17560627 -0.046489492 0.022133885

fc3.bias f4 [10]
000000 bd c1 0f be e7 c5 e7 be 36 e2 f5 3d b1 2a 87 3e
       -0.14038749 -0.45268175 0.12006037 0.26399758
000010 d7 8f 94 3e eb 3f 5a be 1c 23 f8 3d 13 ef dd be
       0.2901599 -0.21313445 0.121160716 -0.43346462
000020 a0 90 cb 3e 17 f5 15 be
       0.39758778 -0.14644276
