models/cifar_10/trained_model/Lenet_parameters.pkl (torch_old, 249648 bytes, 10 tensors)

conv1.weight f4 [6, 3, 5, 5]
000000 c1 f3 81 bd 16 34 9d be 58 73 85 be 01 c1 13 bd
       -0.063453205 -0.307038 -0.26064563 -0.036072735
000010 28 ad 87 3e 6d c1 76 3d 19 f3 b4 be ea 9e fb be
       0.26499295 0.06024306 -0.3534172 -0.4914468
000020 1a 45 15 bf 67 c8 a1 bd 70 da 96 be 58 c0 99 bd
       -0.58308566 -0.07899552 -0.2946353 -0.0750739
000030 de c8 5c be 57 31 b7 be c1 0c f1 be b6 82 cb bd
       -0.21561 -0.3577983 -0.47080043 -0.099370405
000040 cc e8 92 3d a7 09 96 3e d5 8d 5a 3e e4 82 23 be
       0.07173309 0.2930424 0.21343167 -0.159679
000050 12 bc be 3e 45 b9 d0 3e d1 99 db 3e 29 41 9c 3e
       0.3725286 0.4076635 0.4289079 0.30518463
000060 ab 9b 83 3e 8e 7d 67 3d 92 49 4a be a9 4e 72 be
       0.25704703 0.056516223 -0.19754627 -0.23662819
000070 55 db 44 3d 76 6f 83 3e 0c c6 32 3e c8 d5 12 be
       0.048060734 0.25670975 0.17458361 -0.14339364
000080 a4 ac 6c be f7 68 91 be c5 c1 f3 3d 98 b0 bc bd
       -0.23112732 -0.28400394 0.11902193 -0.0921337
000090 b7 44 d9 bc ed 84 03 bc 06 1c 2a be 0e 0c 6f be
       -0.026522024 -0.008027297 -0.16612253 -0.23344442
0000a0 9a 64 93 be d6 19 e9 3d 43 7b 29 3e 8b c7 3d 3e
       -0.2878769 0.11381881 0.16550927 0.18533151
0000b0 7c 14 3e be 0c 6a 25 be 92 a1 af 3d ef 7e 5e 3c
       -0.18562502 -0.16153735 0.08575739 0.013580068
0000c0 3f 51 06 3e bf 39 17 3d 7d 21 08 3d a6 8f 8d bd
       0.1311693 0.036920305 0.033235062 -0.069121644
0000d0 37 fa ff bd c5 6d 8d 3d 37 d8 ba 3e b3 f1 f9 3d
       -0.124988966 0.069057025 0.36493084 0.122043036
0000e0 c5 f3 77 be b1 7f 98 be fc b8 86 be f0 e4 2c 3e
       -0.24214084 -0.2978492 -0.26313007 0.16884208
0000f0 8d 8a 98 3d 32 07 46 3d 6c da e7 3d e6 68 2d 3d
       0.074483015 0.048346706 0.113209575 0.042336367
000100 60 f8 1c be 58 fc 4a be 84 42 75 3e fb d4 a8 3e
       -0.15329123 -0.19822824 0.23951155 0.3297499
000110 7a ac e6 3e 36 85 02 bc a9 76 fd 3b ca 75 a0 3d
       0.45053464 -0.00796633 0.0077350927 0.078349665
000120 80 ca db 3d c8 5d df 3c 2d 3d a5 3d fb 1f b1 ba
       0.10731983 0.027266398 0.08068309 -0.0013513559
000130 3a 5f 4f 3e 73 33 09 3d b6 47 85 3e dd b2 e4 3e
       0.2025117 0.03349633 0.26031274 0.44667712
000140 44 a1 6a 3e e5 1c 83 3e 8c 70 5c bd 31 3a 9a be
       0.2291308 0.25607982 -0.05381827 -0.30122522
000150 4c 30 da 3e 1b 8c 77 3e 9f 4c c9 3e 93 e7 90 3d
       0.42614973 0.2417454 0.3931627 0.07075419
000160 e9 0b bf be bf 55 1c 3e fc ce 81 3e 18 70 94 3e
       -0.37313774 0.15267085 0.2535323 0.2899177
000170 f0 ce 28 3e f6 56 f3 bd db 32 f4 bd 88 8c 04 be
       0.1648519 -0.11881821 -0.119237624 -0.12944233
000180 a7 ae 14 be 77 4e e5 bb 70 79 1c be 89 f5 23 be
       -0.1451975 -0.006997879 -0.152807 -0.16011633
000190 ad 7c b3 3d 42 e0 24 be c6 c8 aa be 9b a2 e8 be
       0.087640144 -0.16101173 -0.33356303 -0.45436558
0001a0 1f 44 af bd 3b 04 6b 3e 50 c6 ac 3d ac f0 e0 be
       -0.08557915 0.22950833 0.084362626 -0.43933618
0001b0 ad 8d 33 bf f5 ce 39 be c6 43 48 3e 5d 85 92 3e
       -0.70138055 -0.18145354 0.19557104 0.28617373
0001c0 5a e7 b9 be 1f 3b 10 bf d2 7b 75 be c3 f4 a5 3d
       -0.3630932 -0.5634021 -0.23973015 0.08103325
0001d0 9a 25 00 3e a5 32 84 bd d5 12 74 be 7b 47 98 be
       0.12514344 -0.06454972 -0.23835309 -0.29742035
0001e0 aa 81 66 3d 0c c7 55 3d 58 96 02 be 69 8b fc bd
       0.056276 0.05219178 -0.12752664 -0.12331278
0001f0 ec 3a ac be f8 b0 89 3e 37 87 8a 3e fc 83 5d be
       -0.33638704 0.2689283 0.27056286 -0.2163238
000200 9d 11 5d be f6 1f c0 3d 5c 6a 7a 3e e0 05 a4 3e
       -0.2158875 0.09381096 0.24454635 0.32035732
000210 34 60 ac be 41 fd 0c bf 54 ef 2a 3e 45 4c 86 3e
       -0.33667147 -0.55073935 0.16692859 0.26230064
000220 b9 eb 98 3e 8f ae 63 bd e4 4f 0c bf b7 33 1b be
       0.29867342 -0.055586394 -0.54809403 -0.15156446
000230 54 4d 09 3e 98 b4 79 3e b2 65 23 3d 72 7f 22 be
       0.13408405 0.24385297 0.039891906 -0.15868929
000240 87 ef a6 bd ac 5c 12 3d c9 e2 b9 3e e9 a9 56 3e
       -0.08151155 0.03573291 0.36305836 0.20963253
000250 eb c7 a8 3e a2 1e ad 3d 48 27 f5 3e 3d 8a 9b 3d
       0.32965025 0.08453108 0.47881532 0.07594726
000260 4f 0f 2c be 46 1a 01 bd cf 69 74 3d 7d 61 9f 3e
       -0.16802715 -0.031519197 0.05967122 0.31129065
000270 e6 a4 1a bf dd 02 95 be 95 8b 51 3e d3 16 38 3d
       -0.60407865 -0.29103747 0.20463403 0.044943642
000280 cd 5b 61 3d 1f 5e 2f bf 49 5f eb 3d b8 5f bd 3e
       0.05501919 -0.6850299 0.114927836 0.3698709
000290 2a 2a cd 3d f1 8d d2 bd ad 1d 27 bf fc 0d 71 3e
       0.10017808 -0.102809794 -0.65279657 0.23540491
0002a0 81 b0 f9 3e 5e 1c a0 3d f9 8c f7 bd f9 2a 85 be
       0.48767474 0.078179106 -0.12087435 -0.26009348
0002b0 99 ca 86 3e d5 96 95 3e 50 fa ac bd 6e ab 52 3e
       0.26326445 0.29216638 -0.08446181 0.20573208
0002c0 16 d7 7e bd ab ab ab be e5 7b 8c bc f5 ae b1 3d
       -0.06221684 -0.3352941 -0.017148921 0.086759485
0002d0 d5 9d 8b 3e 70 89 11 bf b4 96 6d be 02 93 92 3e
       0.27268854 -0.5685034 -0.2320202 0.28627783
0002e0 d6 26 46 3e 1c a2 ea bd 71 9a 35 bf fb 43 5b bc
       0.19350752 -0.11456701 -0.70938784 -0.013382907
0002f0 ab bc bc 3e 14 c6 b2 3d 16 bd a2 be ae 7c 3b bf
       0.36862692 0.08729187 -0.31784886 -0.7323712
000300 d3 e9 b4 3e aa 94 e0 3e 14 8c 32 be 03 fe c1 bd
       0.35334644 0.43863422 -0.17436248 -0.09472277
000310 ab 0c d3 be 8c fe 00 3e 5f ea 10 3e 8b 2b a5 bd
       -0.41220602 0.12597102 0.14151905 -0.08064946
000320 4d 84 a8 bd 31 9c aa bd e8 d0 e7 bd 97 a8 15 bd
       -0.08228359 -0.083305724 -0.113191426 -0.036537733
000330 a1 61 81 3d 7d e6 8a 3a 43 94 bd be fd cf 47 3d
       0.06317449 0.0010597255 -0.37027177 0.048782337
000340 07 48 a2 3e 72 43 de 3d 5d 48 94 be 1f 12 24 bf
       0.31695578 0.10852708 -0.2896146 -0.6409015
000350 ab e7 72 3e cd e5 1c 3f 29 1d be 3c e1 5e a3 be
       0.23721187 0.6128815 0.023207264 -0.31908324
000360 89 23 a6 be 8e 3f 1a 3f 33 33 00 3f d8 16 db bd
       -0.32448986 0.60253227 0.50078124 -0.106977165
000370 9b 9b 13 3e 59 e3 32 3d 8b ef 0d 3f a7 f1 97 3e
       0.14414828 0.043673847 0.5544364 0.29676554
000380 a9 3b 97 bd bb ab 6d 3c 5a 32 5d bd 41 cd cf ba
       -0.07384426 0.014506276 -0.054003097 -0.0015854017
000390 48 9e a1 3e 5b 90 00 3d ed 99 f9 3e 0b 5e 30 3f
       0.31566072 0.031387668 0.4875025 0.688935
0003a0 d0 68 4f 3f 0d d1 38 3f 66 60 5a 3d 8a 50 bd 3e
       0.81019306 0.72193986 0.05331459 0.3697551
0003b0 ea d3 44 3f 00 56 80 3f 46 7f da 3e 73 b3 23 be
       0.76885855 1.0026245 0.42675227 -0.15986423
0003c0 df 60 0c bf 49 44 0c bf 55 8c 34 bf 4b 79 39 bf
       -0.54835314 -0.54791695 -0.7052663 -0.72450703
0003d0 c8 13 db be 7a b3 d6 be 2e 06 94 be c2 f4 ab be
       -0.4278853 -0.41933805 -0.28910965 -0.33585173
0003e0 8d 79 e8 be bb 52 82 be 69 3e 3d bd 53 63 1f bf
       -0.45405236 -0.25453743 -0.046202097 -0.6226093
0003f0 7f ce 00 bf 88 41 bb bc df 98 97 3c 33 64 e1 bd
       -0.5031509 -0.022858396 0.018505512 -0.110054396

conv1.bias f4 [6]
000000 6f 90 2a be 6c b9 b0 be 75 5f 01 bf e6 c1 50 bf
       -0.1665666 -0.34516466 -0.5053628 -0.81545866
000010 c5 4a d0 3e b6 28 83 be
       0.40682045 -0.25616997

conv2.weight f4 [16, 6, 5, 5]
000000 47 88 8a 3e 41 18 be 3e 0b 84 54 3e 1e f6 29 3e
       0.27057096 0.3712788 0.20753495 0.16597793
000010 d6 c8 8d 3d ca 35 c1 bd 97 6a 2d bd 2f 3b 02 be
       0.06923072 -0.094340876 -0.04233798 -0.12717889
000020 27 98 41 be 6e 21 43 be de d3 b7 bc c0 08 a0 bd
       -0.18905698 -0.19055721 -0.022439893 -0.07814169
000030 fc 0c 81 be 83 e6 a6 be 7d 35 d4 be e6 d2 a9 bd
       -0.2520522 -0.3259774 -0.41447058 -0.08292179
000040 fc cd ff bd 26 63 fb bd d1 0b 87 be 70 0c 66 be
       -0.1249046 -0.122747704 -0.26376203 -0.22465682
000050 a6 52 16 3e 7a 15 40 3d 1b 1d 9a 3d 04 de 1a 3c
       0.14679965 0.04689548 0.07525083 0.009452347
000060 79 11 48 be 78 73 20 be 7d fd 9e be 76 d8 a2 3c
       -0.19537915 -0.15669048 -0.3105277 0.019878607
000070 a6 c9 b0 bd 0d 2d bd bd 88 03 be 3d e0 8f c4 bd
       -0.086322114 -0.092371084 0.09278017 -0.095977545
000080 4a 5a 93 3e f9 41 25 3e 95 66 c1 3e b6 58 b7 3d
       0.28779823 0.16138448 0.37773576 0.08952467
000090 87 5b ff 3d 0f 67 b1 3e d4 31 56 bc 55 da a6 3e
       0.12468629 0.3464894 -0.013073403 0.3258845
0000a0 a9 0d 05 3e 11 e6 42 3d 13 0e b7 3d 01 ff 13 be
       0.12993492 0.04758269 0.08938231 -0.14452745
0000b0 65 07 e5 3d 13 95 68 bd ae bb ac bd a8 4b e4 bd
       0.11183051 -0.056782793 -0.084342346 -0.11147243
0000c0 d7 2a 75 be 44 f2 8b 3d dc 77 50 be 49 f7 29 be
       -0.23942123 0.06833318 -0.20358223 -0.16598238
0000d0 11 22 73 bc f0 3a 3b be f3 8f 25 be e5 d7 75 bc
       -0.014839665 -0.18284202 -0.16168194 -0.015005087
0000e0 43 8b ac bd 92 c2 3a be 88 0a 7d be 8c 04 e2 3d
       -0.084249996 -0.18238285 -0.24711049 0.110360235
0000f0 3d 3a 7e 3d a3 e0 36 3b 88 f7 2f bd fa da 22 be
       0.06206726 0.002790489 -0.042960674 -0.15903845
000100 b4 ee d6 3d e1 a5 84 bc 48 56 70 3d bc 2b d2 3d
       0.10494748 -0.016192378 0.058676034 0.10262248
000110 d8 a5 da bd a2 77 94 3d 47 82 f6 bd 1e 01 d0 3d
       -0.106761634 0.07249381 -0.12036567 0.10156463
000120 9f 3d b5 3d 04 c2 17 be 24 63 ff 3d f1 05 ae 3e
       0.08849644 -0.14820105 0.124700814 0.33988908
000130 73 ff b3 3d 73 dd 06 3d 5f 7b 8e 3d ce 27 4c 3c
       0.087889574 0.032926034 0.06957125 0.012460662
000140 ac f8 42 3e 7e 95 6c 3e df 42 1e ba 94 25 3d bd
       0.19040173 0.23103902 -0.0006037186 -0.046178415
000150 2b be 0a 3e 0b 15 8b 3d d8 87 d9 3d b1 ac c4 bc
       0.13549106 0.06791123 0.10621613 -0.024008127
000160 ac f9 2d 3e 32 cb 65 bd cc 78 6d 3d e8 68 a0 3d
       0.16989774 -0.056101985 0.05797653 0.07832509
000170 10 5c b0 3d ad 20 47 3d 02 2b 16 be f4 ce cc bc
       0.086113095 0.048615146 -0.14664844 -0.025001027
000180 37 11 56 3e f1 19 74 3e 73 fa e2 3d 76 75 3b 3c
       0.20905004 0.23838021 0.11082926 0.011441579
000190 23 a3 0e 3f a0 95 19 3f 41 df 59 3e d7 9a 41 3e
       0.55717677 0.59993935 0.21276571 0.18906723
0001a0 77 f8 8c 3e aa a2 26 be 4a c5 c6 bd c7 c2 1d 3c
       0.27533314 -0.16272989 -0.09705599 0.009628958
0001b0 34 03 01 be 05 92 58 bd fb 35 be bd 7f 1c 98 bb
       -0.12598878 -0.05287363 -0.0928764 -0.004642069
0001c0 6c 7b 1f bc d0 14 c7 3d fe 64 43 bd f5 80 d4 bd
       -0.009734016 0.097207665 -0.047703736 -0.10376159
0001d0 0f cc 77 bd cc 09 ad bd 53 5a 6a bd 48 69 49 bd
       -0.06049734 -0.08449134 -0.057215046 -0.04917267
0001e0 3f 8a 25 be 4b aa e2 bd 80 20 e3 bd 30 ee 0b be
       -0.16166018 -0.11067637 -0.11090183 -0.1366508
0001f0 48 ed 08 be d7 fa c5 be 03 1d 05 bf 06 44 e8 be
       -0.13371766 -0.38667938 -0.51997393 -0.45364398
000200 97 9f c3 be 39 66 28 be bc 30 92 bd 6b 70 ab be
       -0.38207695 -0.16445245 -0.071382016 -0.33484206
000210 83 c5 a6 be 9e eb 8d be fd 20 1c 3d a9 ed 28 3e
       -0.32572564 -0.27718824 0.038117398 0.1649691
000220 df 7e 07 3e cf ec 43 bd 92 eb 49 bd c3 66 19 3e
       0.13231991 -0.04783326 -0.049296923 0.14980607
000230 bc b0 7a 3e d9 e8 37 3e cc b2 f3 3d fb 1a 18 3e
       0.24481481 0.17959918 0.11899337 0.14854042
000240 26 ee 37 3e 48 9e a0 3e 76 40 a2 3d 61 5f 45 3e
       0.1796194 0.3137076 0.07922451 0.19274665
000250 44 03 07 3e 55 ee 63 3e 7d 5d d5 bd 1c 1d be ba
       0.1318484 0.22258885 -0.10418222 -0.0014504525
000260 bc 6b 8e 3d 93 b6 2c bd 09 88 4f be 29 b9 62 3d
       0.069541425 -0.042166304 -0.20266737 0.055352364
000270 4f 2b c6 be 04 8f 5e 3e 49 12 b4 3d e2 08 b3 bd
       -0.38704917 0.21734244 0.0879255 -0.08741929
000280 e8 d7 2f 3f 95 7f c5 bd 73 b3 c0 be 34 83 4f bd
       0.6868882 -0.09643475 -0.3763691 -0.050662234
000290 00 f8 40 be c6 d1 f3 bc da e6 40 3f fe 27 cd 3d
       -0.18844604 -0.029763114 0.7535225 0.100173935
0002a0 b8 dd a8 be 80 93 93 be cf 37 94 be 59 18 cb 3d
       -0.32981658 -0.2882347 -0.2894883 0.09916753
0002b0 68 eb 2d 3f 30 ae 2e 3e e1 e3 4c bd 29 a3 8f be
       0.67937326 0.17058635 -0.05002201 -0.2805417
0002c0 d2 27 af 3d 36 bb 26 3e 96 7a 2c be b0 13 7a bd
       0.08552517 0.16282353 -0.16843638 -0.06105393
0002d0 2c ca c9 3d 33 07 c8 be 35 15 40 3e 93 72 29 3e
       0.09853014 -0.39067993 0.1875809 0.16547613
0002e0 b2 71 44 bd 3d 4f f6 3e e7 9e fe bd 81 51 0a bf
       -0.04795999 0.4810733 -0.12432652 -0.54030615
0002f0 42 b9 d5 3d 06 a1 d6 3d 17 5a 8f 3d 7b 85 20 3f
       0.10435726 0.104799315 0.06999605 0.62703675
000300 7c f2 12 be 6b a9 49 be bd 90 a0 bc 4e 79 97 bd
       -0.14350313 -0.19693534 -0.019600267 -0.07396184
000310 69 f4 bb bc b7 05 9d 3e 40 c5 ce bd 6f 97 37 be
       -0.022943692 0.30668423 -0.10096216 -0.17928861
000320 c7 4e 6c 3e 82 d6 3b bc 09 8f 8b be 5c cc d9 3c
       0.23076926 -0.011464717 -0.27257565 0.026586704
000330 82 5a 17 3c d2 15 51 be 0c 98 9e 3e b6 8d 18 bd
       0.009237887 -0.2041848 0.30975378 -0.03724452
000340 9e 76 92 be 47 c6 27 bd 61 49 7d be 92 cb 3d be
       -0.28606123 -0.040960576 -0.24735023 -0.18534687
000350 1f 4b dc 3e db a0 3b bd 88 a2 4a be 03 99 6f bd
       0.43026063 -0.0458077 -0.19788563 -0.058495533
000360 8f 7a 9c be b5 ea 22 be 8f ea 8c 3e 03 f5 6f 3d
       -0.30562255 -0.15909846 0.27522704 0.05858327
000370 01 77 10 be e5 65 38 be 64 9b 88 be 6d 53 10 be
       -0.14107896 -0.1800762 -0.26681054 -0.14094324
000380 bc c6 09 3e 1a 8d ea bc 7b c5 d6 bd dd 07 73 be
       0.13454717 -0.028631736 -0.10486885 -0.23733468
000390 2b 83 0a 3d 12 4e 81 3d a8 2f 80 bd 9f 01 f8 3c
       0.033816498 0.06313719 -0.0625909 0.03027421
0003a0 7b 1c 17 bd 33 4b 9a bd 42 4e 44 3d 87 15 a1 be
       -0.036892395 -0.07533874 0.047926195 -0.31461737
0003b0 50 e0 ae be ac 12 41 3e 4a 2d 5b 3e 17 bd 44 be
       -0.34155512 0.18854779 0.21403995 -0.19212757
0003c0 5b cd 9a bd ce c8 c4 be 9f 03 b0 be 0a b8 ae 3e
       -0.075587 -0.38434452 -0.34377763 0.34124786
0003d0 75 38 2d 3e 93 4e 91 be f3 c4 d4 bd ce e0 12 be
       0.16916068 -0.2838026 -0.103891276 -0.14343569
0003e0 c1 b6 94 bd a1 94 8e 3e 48 a3 eb bd cc 0c 0b 3e
       -0.0726142 0.2784777 -0.11505753 0.135791
0003f0 2b be 01 3d 61 e3 92 3d 60 20 5a 3d d5 2f 4a be
       0.0316755 0.07172275 0.05325353 -0.19744809

conv2.bias f4 [16]
000000 6a a1 88 bf 60 4b 24 be 7c 70 69 3d 2b 33 0f 3e
       -1.067426 -0.16044378 0.05699204 0.13984363
000010 9a 62 dd 3f bd 42 55 bf 94 0e d8 3e 7c cd 26 3f
       1.7295716 -0.8330496 0.42198622 0.65157294
000020 41 64 26 3f 39 86 22 3f cb 07 c3 bd c9 47 c3 3e
       0.64996725 0.6348606 -0.09522971 0.38140705
000030 be c8 e7 be c8 32 ec 3f 76 1a 4f bf 25 e1 83 bf
       -0.45270342 1.8452997 -0.8089975 -1.0303084

fc1.weight f4 [120, 400]
000000 74 5a a7 bc 1c cf d4 bb 38 dd cf bc ef d2 a7 3b
       -0.020428874 -0.006494416 -0.02537404 0.005121581
000010 93 6d 65 3d 28 c2 b9 bc 8e ed 63 bc 9c c6 99 bd
       0.0560127 -0.022675589 -0.013911618 -0.07508585
000020 f8 88 0e bd fc b2 7c bc 4b fa f2 bd 81 77 5c bd
       -0.034798592 -0.015423533 -0.11864146 -0.053824905
000030 9d 83 91 bd cc d6 bf bc 3b 4f d6 3c 81 9e 57 3c
       -0.07105181 -0.023417853 0.026160827 0.013160349
000040 01 ec 6f bd 34 9a b9 bd 9f ea 30 bd 98 c8 7e bc
       -0.05857468 -0.09062615 -0.043192502 -0.015550755
000050 08 6f ce 3d 93 68 9e bd 55 7a d7 bd 15 a9 87 3d
       0.10079771 -0.0773479 -0.1052138 0.06624047
000060 ce f3 4e 3c 5f 6f a7 3d 6b 34 90 3d 9c 13 b4 3d
       0.01263137 0.08175539 0.07041248 0.08792803
000070 2c ff 57 3d 59 8b 08 bc 0c f4 c4 3d 94 c2 b9 3c
       0.052733585 -0.008334004 0.09616861 0.02267579
000080 0d a6 de 3d ec 77 97 3b a7 ef 3c bd db d9 ae 3d
       0.108715154 0.00462245 -0.046126988 0.085376464
000090 fc a4 21 3d 45 b4 c4 3c b7 06 f7 3c 47 0c 1b bd
       0.039463982 0.02401174 0.03015457 -0.037853505
0000a0 e6 db 00 bd d1 f5 c3 bc 65 eb b2 ba 53 5d 0b bd
       -0.03145971 -0.023920925 -0.0013650475 -0.034024548
0000b0 12 70 68 bd d4 ef fd bd 6c fc 1e be 87 18 7f bb
       -0.056747504 -0.12399259 -0.15525979 -0.0038924532
0000c0 66 04 81 bd d5 af ba ba 27 20 70 3c 7c 65 75 bd
       -0.06299667 -0.0014243076 0.014656103 -0.059911236
0000d0 28 d1 f6 bd ac 92 a8 3c 8f b6 44 3d a8 d8 f0 3c
       -0.12051612 0.020577751 0.048025664 0.029400185
0000e0 ae b7 8d 3c 6e f8 af 3b 37 7d 38 bd e8 40 e7 3b
       0.0172995 0.0053701913 -0.04504129 0.007057298
0000f0 e8 f7 5d 3d 9e 29 45 bd 05 42 96 3c a7 86 27 3c
       0.0541915 -0.048135392 0.018342027 0.010224975
000100 3b 04 02 3d 45 81 89 bb 3e 93 0f 3c b1 4e da 3c
       0.031742316 -0.0041963183 0.008763133 0.026648851
000110 3e 8b c5 3b 32 86 a2 3d 36 0d 0d bd a2 ac d2 3d
       0.006028562 0.07935752 -0.034436427 0.10286833
000120 34 d0 19 3d 46 fd 85 bd dd b4 4d 3d 29 09 83 3c
       0.037552074 -0.06542449 0.050221313 0.015995579
000130 c1 56 1a bd d1 bd 8a bd c9 be 40 bd 5b 1c bd bd
       -0.03768039 -0.06774486 -0.047056947 -0.09233924
000140 18 9f 41 3d fa e6 31 3d 9c 91 1b bd d2 99 7a bc
       0.047270864 0.043433167 -0.03798066 -0.015295463
000150 94 87 51 bd f0 71 59 3d d6 9c 89 3d 46 b5 df 3c
       -0.051154688 0.053087175 0.06719367 0.027308118
000160 15 b8 77 ba ee 7e 5b bd d7 fc 17 bd 0f 6e 88 3d
       -0.00094497326 -0.053587846 -0.03710636 0.06661617
000170 58 03 8e bd 8a 48 82 3d 17 11 76 3d 1a cf 9e bd
       -0.069342315 0.06361492 0.060074892 -0.07754345
000180 90 2b 07 3d a2 f2 07 3d 4e 7a 5e 3b 2c 36 15 3d
       0.03300053 0.033190377 0.003394741 0.036428615
000190 44 57 1a 3d d7 16 84 3d 31 a6 9f 3d fd 4b 38 3d
       0.03768088 0.06449669 0.0779537 0.044994343
0001a0 91 a7 e9 ba c8 f3 8d bc 24 58 4b 3d 71 d2 4e bd
       -0.0017826428 -0.017328158 0.049644604 -0.05049366
0001b0 97 fe 8c bd 24 17 8b bd aa a0 96 bd 84 5f b3 3d
       -0.06884497 -0.06791523 -0.07354863 0.087584525
0001c0 9c 5a df bd 99 1c 73 3d 25 03 63 bc 84 8d 76 bd
       -0.10905954 0.059353445 -0.01385573 -0.060193554
0001d0 3b 90 e0 bc e3 c2 ab bd b4 31 49 bd 44 dd 97 3d
       -0.027412524 -0.08386781 -0.049119666 0.0741525
0001e0 a2 90 9a bd 13 07 33 3d 9d 40 fa 3c 59 ca d8 bd
       -0.07547118 0.04370792 0.030548388 -0.1058547
0001f0 2b 62 5d 3d cb d9 6a bd 4c 05 67 bd f2 98 c5 bc
       0.0540487 -0.05733661 -0.056401536 -0.024120782
000200 d2 2d a2 bc c1 47 19 bd 14 b8 0f 3d b8 79 84 bd
       -0.01979724 -0.037421945 0.03508766 -0.064685285
000210 08 ba 96 bd 06 7e 74 bd 9b 6b d4 bd eb 5d 8b 3b
       -0.073597014 -0.059690498 -0.103720866 0.0042531393
000220 f7 6c 85 bc a1 d6 09 bd f0 ae 67 bc d5 39 55 3c
       -0.01628731 -0.03365195 -0.014140829 0.0130142765
000230 12 e2 84 bd c4 f9 55 bb 66 c9 d9 bd 12 e5 83 bd
       -0.06488432 -0.0032650093 -0.10634117 -0.06440176
000240 2b 17 bd 3d 1f 13 d5 3c 10 e6 17 3d 64 70 e1 3b
       0.092329346 0.026010094 0.03708464 0.006879853
000250 da f9 88 3c 14 34 9e 3d df 5b 03 be f7 aa ee bd
       0.016720701 0.07724777 -0.12828015 -0.11653703
000260 2f 97 2f bd ff 48 ba 3c 24 33 15 3c d3 2b ed bd
       -0.04286879 0.022739885 0.009106431 -0.115806244
000270 ea b1 02 be 17 85 21 bd 0d 95 20 bd d1 cb 54 3c
       -0.12763181 -0.039433565 -0.039204646 0.012988047
000280 30 a4 69 bd 03 0f a5 bd bb 48 84 bd 4e 64 d5 bd
       -0.057041347 -0.08059504 -0.06459185 -0.10419522
000290 72 cc a1 bd dd ee c5 b8 5c 9b de 3c ac 0b 5d bd
       -0.07900323 -9.438184e-05 0.02717369 -0.05396621
0002a0 ac 1b e3 bd e5 54 9e bd 45 1e 68 bb 7e 40 d5 bc
       -0.11089262 -0.07731036 -0.0035418433 -0.026031729
0002b0 49 22 5d 3b c6 41 b7 bd cc b1 1c bd b9 c6 b6 bc
       0.003374236 -0.08948092 -0.038255498 -0.022311555
0002c0 5f 05 02 bd 3d 00 bc bd ea 63 4b bc 51 16 25 bc
       -0.031743404 -0.09179733 -0.012413958 -0.010076121
0002d0 41 f5 35 bd c7 c5 9f bd d5 cd 8b bd 4a be d0 bb
       -0.044423345 -0.07801395 -0.06826369 -0.0063703405
0002e0 02 0d 02 be 40 90 cc bd af dc 6f bd b2 bd d3 3c
       -0.12700275 -0.09988451 -0.05856007 0.02584729
0002f0 52 fa 7e bd b8 e9 c0 bd 88 0d 20 bd 30 6a c4 bd
       -0.062250443 -0.09419578 -0.039075404 -0.09590566
000300 5d 93 b2 3d 89 2d 9f bd 7f fc 0e be 5b c2 26 bd
       0.087195136 -0.07772357 -0.13963507 -0.040712696
000310 ff 43 72 3d 64 58 f4 3d 1d f5 52 3d 72 c5 f7 bc
       0.059146877 0.11930922 0.05150329 -0.030245516
000320 82 97 c6 3d 97 50 81 3d bc e6 22 bd cb 6d 57 bd
       0.096968666 0.063141994 -0.039770827 -0.05259494
000330 0e 13 9e bd b9 f8 72 3d 43 6f 4a bd 5e 11 be bd
       -0.07718478 0.05931923 -0.049422514 -0.09280656
000340 ff 15 c1 bd 6e 7e fb bd 80 62 7a 3d d0 d4 e9 3d
       -0.094280235 -0.12279974 0.061129093 0.11417544
000350 ac 97 6c 3d ee 32 7c bd 1b 2e 61 3c d0 25 4c 3d
       0.057761833 -0.061572008 0.013743903 0.04984075
000360 81 07 fb 3b 93 a3 9d 3d 77 bc dc bc b0 bf 4c 3d
       0.0076608066 0.07697215 -0.026945336 0.049987495
000370 ee a5 72 3d fc 1e 39 bc a6 6e cb 3d 38 42 b4 3d
       0.059240274 -0.011298891 0.09933214 0.08801693
000380 05 06 40 3d d4 d5 f8 bc d3 7a c5 bc 8a 6a ff 3a
       0.04688074 -0.030375399 -0.024106419 0.0019486707
000390 bf 26 77 bd 9a 64 0b be 0d 0e 33 3c b4 67 a3 bc
       -0.060339686 -0.13612595 0.010928643 -0.01994691
0003a0 68 62 25 3c 41 1b 34 bb 83 70 b8 bd 5d 5c ec bc
       0.010094263 -0.0027482065 -0.09005835 -0.028852636
0003b0 47 39 43 bc 6a 74 b9 3c 85 e0 b8 3d e9 ca f8 bd
       -0.011915511 0.022638518 0.09027199 -0.12148077
0003c0 60 a6 e3 bc 82 4f 8e bc 37 e1 16 bd c1 7f 07 bc
       -0.027789295 -0.017371897 -0.036835875 -0.008270205
0003d0 9f fe ad bd 8c ec 4c 3d 96 23 18 b8 c2 ff 66 bd
       -0.08495831 0.050030276 -3.6272766e-05 -0.056396253
0003e0 01 d7 f5 bc 66 20 05 be 37 77 be 3c 72 12 13 3d
       -0.030009748 -0.1300064 0.023250205 0.035906263
0003f0 03 1b 1d 3d 81 04 00 3d b1 17 01 bd d7 90 25 3d
       0.03835584 0.031254295 -0.031516735 0.040421333

fc1.bias f4 [120]
000000 fd ee de 3d 92 82 20 bd 0b c8 e4 3d cc 0a d6 3c
       0.10885427 -0.03918702 0.11170968 0.026128195
000010 f9 39 56 bd 79 ae 67 3d 91 97 c0 3c 4b 93 48 bd
       -0.05230138 0.056562874 0.023509772 -0.048968595
000020 ea d6 14 3e 89 db 39 be 5e 73 0f 3e e6 ea 6b bd
       0.14535108 -0.18150152 0.14008853 -0.057597063
000030 d2 b7 20 bd 3e eb 26 be dd cc 9f bb 26 a3 07 be
       -0.039237805 -0.16300675 -0.0048767165 -0.1324583
000040 96 20 39 bc 27 01 4c 3e 06 26 38 bc 8d 67 a2 3d
       -0.011299273 0.19922315 -0.011239534 0.07929907
000050 56 51 5b 3d 20 5c 27 be 1d be 45 be a7 a1 0d be
       0.053544365 -0.16343737 -0.19310804 -0.13831197
000060 1b db 06 3d af 4b 82 bc 48 e9 dd 3d cd 36 f2 3d
       0.0329238 -0.01590523 0.108355105 0.11826859
000070 14 8d 5d 3e 36 d3 47 bd 48 84 ba 3e 7b b7 d6 3e
       0.21635848 -0.04878541 0.36429048 0.4193686
000080 35 7f 7b be fe 12 92 bd 07 e7 3a 3d fa 53 cb bc
       -0.24560244 -0.07132529 0.04563048 -0.024820317
000090 66 aa c3 3d 0b 3a 2e 3e 33 99 87 be 2a 54 df 3d
       0.09553985 0.17014329 -0.2648407 0.10904725
0000a0 51 6f aa 3c 1e 00 ad 3d ea 10 18 bd c7 b0 32 3e
       0.020805033 0.08447288 -0.037125506 0.17450248
0000b0 fc 41 98 bd 1a d3 df bb 43 c5 9c 3d 0a 4b 98 3e
       -0.074344605 -0.006830585 0.07654812 0.2974475
0000c0 ab fc 04 3e e6 22 21 be b7 61 43 bd 30 ca e8 3e
       0.1298701 -0.15735969 -0.04770061 0.45466757
0000d0 aa 9a 34 3e 52 9a 2e bc 51 02 d0 3d 54 49 3f be
       0.17637125 -0.01065691 0.10156692 -0.18680316
0000e0 e8 2a 78 bb c8 63 9b bb 72 cb 1e 3e fe 3a 5b 3a
       -0.003786737 -0.0047421195 0.15507296 0.00083629775
0000f0 7d 6f 1b bd 6a 2e 94 bd 8d 9f e9 bd 05 dd 5c 3e
       -0.03794812 -0.07235415 -0.11407385 0.21568687
000100 43 47 96 bd dd df a4 bd df 54 36 bd fc a2 20 3d
       -0.07337811 -0.08050511 -0.044514533 0.039217934
000110 20 e9 8c 3e b4 d5 df bc f0 19 6f 3e f3 e6 b5 bc
       0.2752161 -0.027323581 0.23349738 -0.022204852
000120 c5 0d 8e bc e5 0e 94 3d fd cd 70 bc e6 0f 6a bd
       -0.01734055 0.072294034 -0.014697549 -0.05714407
000130 aa 67 05 bd 3a 2f 79 3e 71 52 75 bc 3c 01 2a be
       -0.032569565 0.24334422 -0.014973269 -0.16602033
000140 70 fa f2 3e fb da 44 3e 56 88 ae 3c 05 38 87 3d
       0.47456694 0.1922416 0.021305244 0.06602482
000150 47 2d e6 bd 10 cd 9a 3d a4 20 1c bd 4d 6a 81 3d
       -0.11239105 0.07558644 -0.038117066 0.063191034
000160 f1 4d 02 bd 09 9b 61 3d 2d 9a b5 3c c7 e2 c1 bc
       -0.031812612 0.055079494 0.022168243 -0.023667706
000170 a7 40 99 3d ae c2 ef bd ed c6 a7 bd ad c7 2a 3e
       0.074830346 -0.11707054 -0.08192239 0.16677733
000180 4b 81 04 be 2b 7c 6b 3d fd 98 30 be 44 96 c3 bd
       -0.12939946 0.057491463 -0.1724586 -0.09550145
000190 2d ac cd 3c bd b3 1f 3d e6 cc 6e bb f0 64 49 3d
       0.025106514 0.03898977 -0.0036438047 0.049168527
0001a0 9f d7 e7 3d 55 b4 4b 3e 79 be f9 bd 5c 12 9f 3e
       0.11320423 0.1989301 -0.12194533 0.31068695
0001b0 6b 19 7c 3b fb e9 c3 bd 0b ab b2 3e dd ec bc 3d
       0.0038467299 -0.095661126 0.3489612 0.092248656
0001c0 49 c1 bb bd 29 f2 50 3e a5 1a a0 bc e3 7a a4 3e
       -0.091677256 0.20404877 -0.019543955 0.32125005
0001d0 f5 bc 9c 3e 9f 25 91 bc e5 fb 23 bd 30 64 85 3d
       0.30612913 -0.017718134 -0.040035147 0.0651325

fc2.weight f4 [84, 120]
000000 e1 02 78 bd 6a f2 77 3d 43 20 33 be 95 e2 f6 3c
       -0.06054962 0.06053392 -0.17492776 0.03013734
000010 23 85 81 3c 05 8d ef 3c 35 2d 31 be b6 fc 6f bb
       0.015810555 0.029242048 -0.17302401 -0.0036619133
000020 05 3f 8f bd d8 4a bd bd 29 a3 9a 3a 7f c1 5f 3c
       -0.06994442 -0.09242791 0.0011797893 0.013656973
000030 ec 63 ed bd 6f df a4 bd 6e 66 9d bd 16 4a 8e 3c
       -0.11591324 -0.08050429 -0.076855525 0.017369311
000040 96 de 6e bd 32 8f c5 bc 93 e5 bf 3c 7e 1c 25 bb
       -0.058317743 -0.024116132 0.0234249 -0.0025193985
000050 b3 6f 83 3d ea cf 6c be d0 44 b1 bc 5b 16 85 bd
       0.06417789 -0.23126188 -0.021639258 -0.064984046
000060 16 ba 87 3d 35 79 bb 3d 30 51 2f bb 8d 89 79 3c
       0.0662729 0.09153978 -0.0026751272 0.015230549
000070 68 66 5e bd 01 71 13 bd 12 72 b6 bd 29 7e c4 bd
       -0.05429688 -0.03599644 -0.08908476 -0.09594376
000080 00 bd fd bb 79 84 d4 3d e8 3f e3 bc cc 34 e4 bb
       -0.007743478 0.1037683 -0.027740434 -0.0069643017
000090 c5 c6 a2 bc 33 f8 1a bd a0 1b 69 bd 13 89 04 be
       -0.019870171 -0.037834357 -0.05691111 -0.12942915
0000a0 76 81 c2 bc 6e 57 66 3c e8 39 30 bd 1b c9 2b bc
       -0.023743372 0.014058931 -0.043023974 -0.010484959
0000b0 7c 3b 20 bd 36 ca 07 bd 24 07 56 bd 7e b4 19 be
       -0.03911923 -0.033151828 -0.052252904 -0.15010259
0000c0 70 3c e4 bc 72 43 a9 3c fe 23 34 3d 29 be d4 3d
       -0.02786085 0.020662043 0.043979637 0.10387833
0000d0 7e 66 c5 3c d7 38 e4 bd b4 d9 c5 bc d6 9a fe bd
       0.024096724 -0.11143654 -0.02415166 -0.12431876
0000e0 94 4e ff bc 1b 4c 29 3d 5d 0f c3 3d 07 cb 6b 3c
       -0.031165399 0.041332345 0.09524415 0.014391667
0000f0 a4 81 0c be ba ce 55 bd e2 76 42 bd 19 15 9d bc
       -0.13721329 -0.052199103 -0.047476657 -0.0191751
000100 5a f3 67 bd 75 84 d2 3d 6d a9 4e 3d ae a6 9b bd
       -0.056628563 0.102791704 0.050454546 -0.07600151
000110 55 b3 4c be 5c 05 99 3d ea fd 35 3c fe 5a d5 bd
       -0.19990285 0.07471725 0.011107901 -0.10417746
000120 d0 ff 9f ba 25 a1 a6 bc 85 30 f4 3c 40 cc 4b bd
       -0.0012206975 -0.020340512 0.029808292 -0.049755335
000130 0e d8 82 bc e1 c8 4b 3e 42 74 49 3e 3a 49 f9 bc
       -0.015972164 0.19900848 0.19673255 -0.030430425
000140 df 0d fb 3d 76 1b a4 bd 7c d0 09 bc 30 8e 7b bb
       0.12258505 -0.0801305 -0.008411523 -0.003838431
000150 5c e5 bb bd b5 1a dd bd c2 0c b1 bc f4 c4 e5 3d
       -0.09174606 -0.107961096 -0.021612529 0.112192065
000160 ed 8d af 3b 84 f8 59 be 6b 39 60 bd 4d d2 a5 bc
       0.005357495 -0.21286207 -0.054742258 -0.02024188
000170 52 e9 0e be 76 ec 96 3c cc 7b 09 bd 14 02 d6 3d
       -0.13956192 0.0184233 -0.033565328 0.10449615
000180 59 e9 6b 3d 99 fd de 3d d1 db 31 bd 0a d1 10 be
       0.057595585 0.10888214 -0.043422524 -0.14142242
000190 f4 6f ec bc b8 ab 3e bd 09 77 b9 bc 4c b4 28 3e
       -0.028861977 -0.046550483 -0.022639768 0.16475028
0001a0 2e b1 a9 bc 87 83 34 bd a6 c4 cb 3d 43 0b 67 bd
       -0.020714369 -0.044070747 0.09949617 -0.056407224
0001b0 3d 99 fa 3b 4b 51 41 bc 84 59 03 bd 1a 63 8a bd
       0.007647662 -0.011799167 -0.03206779 -0.067571834
0001c0 2f 56 02 bd c8 6b 0d be 09 5a 1c be a2 8c 0f be
       -0.031820472 -0.13810647 -0.1526872 -0.14018491
0001d0 ce ef 8b bd 91 8b b6 bd 79 47 74 bd 22 f5 0b 3e
       -0.068328485 -0.08913339 -0.059638474 0.1366773
0001e0 a9 aa 0e 3e 33 88 bd 3c 34 3b 19 bd 2e 85 26 be
       0.13932289 0.023136234 -0.037409976 -0.16261742
0001f0 92 ce da 3d ec 08 b9 3c dd 5f 1d be 3a 93 1d be
       0.106839314 0.022587262 -0.153686 -0.15388194
000200 d3 3c e6 bc 56 dc 10 be c2 5a 64 be 82 7b 68 be
       -0.028105175 -0.14146551 -0.22300246 -0.22703364
000210 b0 15 0d be 0e 45 32 be 09 f4 28 be ac 44 4b 3d
       -0.13777804 -0.17409155 -0.16499342 0.049626037
000220 67 d5 b5 3d 1a a8 16 be 69 f2 33 be 54 9a a2 3c
       0.08878594 -0.14712563 -0.17572941 0.01984898
000230 ab 66 6b bd 94 96 31 3c 39 ce bf 3d d1 da 98 bd
       -0.05747096 0.010839123 0.09365506 -0.07463611
000240 c8 1f c7 3d 7f 08 32 be 3f ea 41 3d f9 36 3e 3d
       0.09722859 -0.17386054 0.047342535 0.046439145
000250 6c 64 a1 bd 31 1e 03 be 50 4d c0 bd ce 9a 0c 3e
       -0.07880482 -0.12804486 -0.09389746 0.13730928
000260 15 60 a7 bd 0d f8 9b bd a7 7d 61 3e d7 ff 6b 3d
       -0.08172623 -0.07615671 0.22020589 0.057617035
000270 cf b3 88 bd 7f 91 8b 3d ef 56 b1 bd e9 a0 c3 bd
       -0.06674921 0.068148606 -0.086591594 -0.095521756
000280 be 1c 42 bd 19 8d 25 3e 92 d5 86 3c d1 15 fe bd
       -0.047390692 0.16167106 0.01645926 -0.12406505
000290 db a3 1e be 82 92 ca bc 49 00 e1 3b 6c f1 26 3d
       -0.15492193 -0.024728063 0.006866489 0.04075758
0002a0 51 c4 ce 3d 3d e1 15 3d 6a 22 65 bd ac 70 dc 3d
       0.10096038 0.036591757 -0.055941023 0.10763678
0002b0 6f 2e 47 3e bc 66 6f bc 68 88 57 3d 6a c9 88 bd
       0.19451307 -0.014611896 0.05262032 -0.06679042
0002c0 8f 9a 4e 3d f0 8f fa bd b2 e0 36 3d 30 52 32 be
       0.050440367 -0.12234485 0.04464788 -0.17414165
0002d0 2a 09 84 bd 0c 40 65 3e 18 d0 5b 3d dc 79 02 bd
       -0.064470604 0.22387713 0.05366525 -0.031854495
0002e0 f6 e5 29 bd bc e9 8c ba ea cb a1 bd b1 c2 22 be
       -0.041479073 -0.0010750811 -0.07900222 -0.15894581
0002f0 40 65 56 3d 48 fd 8f bc 85 e0 f6 bd 83 3d 60 3d
       0.052342653 -0.017576829 -0.120545425 0.054746162
000300 9e 0a ee bd 59 1d cd 3d 81 ed 0f 3e 8c 1e 2a 3d
       -0.11623119 0.10015363 0.14055444 0.041533038
000310 fb 6c 05 bd 73 c4 34 bd 4c 24 71 3d c9 b5 07 be
       -0.032574635 -0.04413266 0.058872506 -0.1325294
000320 6e 5d e8 3d 14 3a 06 3e c2 57 23 3d 2f df 5b bd
       0.11345945 0.13108093 0.039878614 -0.05367964
000330 c6 1c 23 3e 0a 98 27 bd c7 ee 67 bd d9 5f e4 ba
       0.15928945 -0.04091648 -0.0566242 -0.0017423584
000340 d8 c4 85 be 29 c5 b7 bd ae ed b4 bd 16 d9 9d bd
       -0.26126742 -0.08973152 -0.08834396 -0.077074215
000350 4b 32 83 bd bb 32 31 bd e5 43 0f be 72 b0 43 3d
       -0.06406077 -0.04326127 -0.13990743 0.047775693
000360 18 2e 60 bd 6f eb ba 3d 65 7b 3f bd 88 05 b2 bd
       -0.05473146 0.09126937 -0.046748538 -0.08692461
000370 70 30 98 bd 3c 2e 71 3c 45 18 3a bd 47 e9 bf bb
       -0.07431114 0.014720496 -0.0454333 -0.0058566662
000380 05 31 94 3d 3b c2 0c 3e 53 4b b6 bd 1d 39 ac 3b
       0.07235912 0.13745968 -0.08901086 0.005255832
000390 a2 20 bc bd 41 da 05 be e6 1a f6 3d 37 57 2d 3d
       -0.09185912 -0.13071539 0.12016849 0.042319503
0003a0 dd e3 ac bc 7a 79 0d be c9 57 8a bd 21 42 e5 bd
       -0.021104747 -0.13815871 -0.06755025 -0.11194254
0003b0 ca 8d 5f 3d c1 48 e6 bc 75 1a 0c bc a0 15 84 3e
       0.05457858 -0.028110864 -0.00855123 0.2579775
0003c0 f1 aa 2a bd a5 4c 6b bd a5 65 30 3e 60 46 ef bd
       -0.04166693 -0.05744614 0.17226274 -0.11683345
0003d0 4c 8c b8 bd d8 e2 1b 3d e4 0f 40 bd c9 ef 9a bc
       -0.090111345 0.038058132 -0.046890154 -0.018913167
0003e0 98 b0 cc 3d 45 a0 2a bd 76 a4 87 bc c5 68 53 3b
       0.0999462 -0.04165675 -0.016557913 0.0032258492
0003f0 8d 15 94 bd 69 53 02 be 0a 72 0b be 7c 07 12 3d
       -0.07230673 -0.12727131 -0.13617721 0.03565167

fc2.bias f4 [84]
000000 3f 9e fc 3e 64 d9 da 3e 8c 38 6b 3e f0 ab 86 3c
       0.49339482 0.4274398 0.2297079 0.016439408
000010 55 d4 c9 3c 05 51 81 3e 1f a2 26 3f f4 39 b1 3e
       0.02463738 0.25257125 0.6509113 0.34614527
000020 5a 72 5d bd 1b 6d c7 3d 0f ff b0 3d 4c 9f 21 3d
       -0.054064132 0.09737607 0.086423986 0.039458558
000030 03 7f da bd 64 c1 9e bc f8 57 44 3f 7b 00 dd 3e
       -0.10668757 -0.019379325 0.7669673 0.4316443
000040 fb 27 b1 3d fa 2f b8 3d e2 69 9e 3e 2f a7 06 3f
       0.08650204 0.08993526 0.30940157 0.5259885
000050 ad 6c 11 3d 48 4b 4d 3e 53 4e 96 bd 94 99 c1 3d
       0.035504032 0.20048249 -0.07339158 0.09453121
000060 b1 b6 a3 3e 96 c4 1c 3f 1d 8b d9 3d b5 91 9a 3e
       0.3197532 0.61237466 0.10622237 0.3018929
000070 e0 10 6f 3e e2 e8 91 3d cd 1f 30 3e df 6a 16 3d
       0.23346281 0.07124497 0.17199631 0.036723014
000080 97 6b 94 bd 1e d4 43 3d 93 82 bd 3e cf 34 a9 3e
       -0.07247084 0.047809713 0.37013683 0.33048102
000090 e4 f2 ca 3e 36 72 7d 3e d3 cd f5 3e f8 f7 16 3f
       0.39638436 0.247506 0.48008594 0.5897212
0000a0 74 54 d9 bd aa ea 7e 3d 66 06 22 3f ea 50 0b 3e
       -0.10611811 0.06223551 0.63291013 0.13605085
0000b0 3f a0 6a 3e 3c b7 8b 3c 70 91 9b 3d cf 45 fc 3e
       0.22912692 0.017055146 0.075960994 0.4927201
0000c0 af 0c fc 3d 31 d1 b0 bc 08 e8 01 3f d9 c2 5f 3e
       0.12307107 -0.021584125 0.50744677 0.21851672
0000d0 b8 ae c7 bd 91 34 4d 3e 84 2f 5a 3e aa 13 7c 3d
       -0.09750122 0.20039584 0.21307188 0.06154219
0000e0 1c 5a 14 3e 3c 4d 9e bd 2c b3 9c 3e 7b 62 14 3e
       0.14487499 -0.07729575 0.30605447 0.14490692
0000f0 b0 ee 41 3d 39 47 55 3e a5 42 5a 3f 06 62 ac 3d
       0.04734677 0.2082795 0.8525794 0.08417134
000100 6b e6 fd 3e f4 cb 91 bb 23 a1 10 3e 3e de d5 3e
       0.49589857 -0.004449362 0.14123969 0.4177112
000110 b5 ab b3 3e 8b bc c1 3e f9 ef 1f be 92 d9 63 3d
       0.3509194 0.3783916 -0.15618886 0.055627413
000120 2c 33 db 3e c9 16 56 3e e7 e3 5e 3e 52 db 2b 3e
       0.4281248 0.2090713 0.21766625 0.16782883
000130 c4 89 17 3e a2 9d b4 3e 57 67 9d bd d7 52 9f 3e
       0.14798647 0.35276514 -0.07685726 0.3111789
000140 79 43 53 3e 38 99 85 bd 1a a9 46 3d 7b 9d c6 3e
       0.20631208 -0.06523365 0.04850111 0.38792023

fc3.weight f4 [10, 84]
000000 df 0b 15 be 58 32 82 3e ec b5 0e 3e 8f a9 16 bc
       -0.1455531 0.25429034 0.13936585 -0.009195699
000010 89 b1 a8 3d 9a a9 8b 3e 33 a0 52 bd 41 38 34 3e
       0.08236987 0.27277833 -0.05142231 0.17599584
000020 23 85 d3 3d f6 cc 2b 3b b9 4c bc 3d a8 19 db 3d
       0.10328128 0.0026214696 0.09194321 0.10698253
000030 a1 79 38 3e 48 ed ab bd 69 28 88 be 0e 0d ea 3d
       0.18015148 -0.08394867 -0.2659333 0.11428271
000040 b1 e7 5f bd 4a d7 2b 3e 2c 9c 30 bc 5e 6c 5e 3e
       -0.054664318 0.16781345 -0.010779422 0.21721026
000050 b1 85 97 bd 61 2b 32 3d 8d 1b 44 3e ee be 43 3e
       -0.073985465 0.0434984 0.19151135 0.19115803
000060 90 d0 d0 bc 52 cd 92 be af 4e 3a bd f5 16 41 be
       -0.025490075 -0.28672272 -0.045485195 -0.18856414
000070 24 2d 12 3e cd a1 62 bc 78 95 5d bd f5 9c 5e 3e
       0.14275032 -0.013832522 -0.054097623 0.21739562
000080 d7 08 82 bc 3b 4c 17 be e2 06 63 3e e3 17 47 bd
       -0.015873356 -0.14775173 0.22170594 -0.048606765
000090 1a ac 70 3e 13 50 8c 3e 29 9a c5 bc 55 11 f1 bd
       0.23503152 0.27404842 -0.02412136 -0.11770884
0000a0 48 a4 b4 bc 7d 37 9a bd c0 75 45 3d 52 f8 b4 bd
       -0.022050992 -0.07530115 0.048208 -0.08836426
0000b0 bc a2 02 be 1b 28 5e bd 69 b4 27 3e b1 7d 17 3e
       -0.1275739 -0.054237466 0.16377415 0.14794041
0000c0 10 bc c5 bd f0 10 13 3e 0c 0c 84 be ba eb ed 3d
       -0.09655011 0.1436193 -0.2579044 0.11617227
0000d0 c8 25 72 3e 6b e0 00 3e 4e 72 ee bd 4f 42 ef 3d
       0.23647225 0.12585609 -0.11642896 0.11682569
0000e0 93 3e 37 3e b3 3b 1c 3d 0d ed 9d 3d 66 2e 57 3d
       0.17894964 0.03814287 0.077112295 0.052534483
0000f0 b8 85 f1 3d 02 1c c9 3c 6d 9a 02 bd c5 db 06 be
       0.11793083 0.024549488 -0.031885553 -0.13169773
000100 c8 37 cd bd 29 8a b3 3d 35 6c d0 bd a7 76 cf bc
       -0.10020405 0.08766586 -0.10176889 -0.025325133
000110 f7 93 e4 bd 0a d5 88 3d 3a c9 69 3d 34 ee be 3d
       -0.111610346 0.06681259 0.05707667 0.093227774
000120 5d 14 8d bd 23 dc 83 bd e9 75 8a 3d c5 b0 27 be
       -0.068886496 -0.06438472 0.06760771 -0.16376026
000130 09 b3 f8 3c 07 13 1d be 8b 56 14 bc 0c 57 45 be
       0.030358808 -0.1533929 -0.009053837 -0.19271487
000140 79 c1 4d 3e 82 88 0f 3d 7b 3b 74 3d d6 99 0b 3e
       0.20093335 0.035042293 0.059627037 0.13632903
000150 33 3c d4 be 93 71 47 be ed 43 5e 3d 89 62 31 bd
       -0.41452178 -0.19476919 0.054263998 -0.04330686
000160 66 de b0 bc 24 f1 69 3e 93 72 ca 3d 2a ee 11 be
       -0.021590423 0.22845894 0.098851345 -0.14251009
000170 9e e4 6c 3e 57 48 d8 3d 35 63 3d 3e 1a fc e7 bc
       0.23134086 0.10560673 0.18494876 -0.028318454
000180 2a d4 2e 3e 6a 59 30 bd 6a 53 56 be f3 c9 e3 be
       0.17073122 -0.043054022 -0.20930257 -0.44490013
000190 07 4e 90 bd b1 9c dc 3d 06 3a 22 be ff 41 19 3e
       -0.070461325 0.10772074 -0.15842447 0.14966582
0001a0 ae 50 bd bd df af 96 3e d4 5f 5b be 91 b5 60 3e
       -0.09243904 0.29431054 -0.21423274 0.21944262
0001b0 92 0c ea bc 5c b1 14 3e 56 30 8f 3e 77 a2 2c be
       -0.028570447 0.14520782 0.27966565 -0.1685885
0001c0 d5 6a 91 3e e8 5c 0e 3b 82 81 14 3e fe 65 1d 3d
       0.2840182 0.0021722857 0.14502528 0.038427345
0001d0 1f e3 27 3e 2e 6a 8b bb 50 d6 73 b9 27 25 83 be
       0.16395234 -0.004254601 -0.00023254124 -0.25614282
0001e0 12 68 1b bc 9f 17 08 3d 14 f6 44 3c ed 26 ea bd
       -0.0094852615 0.03322565 0.01202156 -0.11433206
0001f0 b8 33 67 3e 80 c8 1b bc 22 ac 88 be 87 77 39 bd
       0.22578323 -0.009508252 -0.26693827 -0.045280006
000200 4a 16 23 3c fe bc 83 3e dd 74 9e be ce 94 0d 3e
       0.009954045 0.25730127 -0.30948535 0.13826296
000210 26 12 62 bd 9a d2 49 bd e8 99 ce bd 9d c7 38 bd
       -0.05519309 -0.04927311 -0.10087949 -0.04511224
000220 bb 97 65 bd 30 fb 0b 3e 9a 6a 59 3d 40 81 38 bd
       -0.056052905 0.13670039 0.05308018 -0.045045137
000230 60 07 6f be fe 68 a7 bd d5 ef d0 3d 52 05 68 3d
       -0.23342657 -0.081743225 0.10201994 0.0566457
000240 7e ea 04 be 1a ed 79 bc 48 0b 11 bf 31 7c 5c 3d
       -0.12980077 -0.015254283 -0.5665784 0.053829376
000250 c4 7a 6c bd cc 53 8c bd 53 1b c9 3d a5 c1 eb 3c
       -0.057734266 -0.068519205 0.09819665 0.02877886
000260 e4 28 3e be 2a 6c 89 be e0 e1 ef 3d 16 8d 78 bd
       -0.18570286 -0.26840335 0.11713004 -0.060681425
000270 b7 e1 67 be 91 a4 a3 3d fe 14 0f 3d 1a 13 91 be
       -0.22644697 0.07990373 0.03493213 -0.28334886
000280 79 c6 1f 3e 28 8e 86 3e ec 7a 25 3e ab 0e e8 3c
       0.15603055 0.26280332 0.16160172 0.028327307
000290 99 bf 39 3b ba d0 4d 3e dc 0d 0a be ba 4b 0a 3d
       0.002834296 0.20099154 -0.1348185 0.033763625
0002a0 48 b1 39 3e b1 74 e7 bc 29 63 28 bc eb 76 7d 3e
       0.18134034 -0.028253885 -0.010277548 0.24752395
0002b0 23 60 ff 3d 08 9d 56 be 54 a8 53 3b 53 92 37 3c
       0.124695085 -0.2095834 0.0032296376 0.01120432
0002c0 17 f6 ee bc 92 15 91 bd 69 ef 5d bd 55 66 91 3d
       -0.02917008 -0.07084192 -0.054183397 0.070995964
0002d0 59 2e d2 3d b4 53 86 3e af d0 73 3e 24 28 29 3e
       0.10262746 0.26235735 0.23810075 0.16519219
0002e0 fc f7 4d 3e 2b dc 1e bd a6 2d ad 3d 91 bc ff bd
       0.2011413 -0.038784187 0.084559724 -0.12487138
0002f0 61 61 5b 3e 01 58 bc bd d3 4c 49 3e 4f 63 6d bc
       0.21423866 -0.09196473 0.19658212 -0.014489009
000300 be c8 01 3e 94 d4 8f bd 07 8a 3d be 87 9b 97 3d
       0.12674233 -0.07022968 -0.18509685 0.07402711
000310 2c 7f 7f be 42 ce 23 be e6 8a 6d bd 2b 77 33 3e
       -0.24950856 -0.1599665 -0.057993792 0.17525928
000320 6e a4 37 bd c9 36 8e 3d 6d b7 76 3c 63 0d 6d 3e
       -0.044834547 0.06944043 0.015058381 0.23149638
000330 5d d1 74 3e fe df cd 3d fd a2 67 3d cd 59 29 3e
       0.23907991 0.10052489 0.056551922 0.16538163
000340 c6 19 8b 3d 3d bd 81 bd 14 50 07 bd 39 e6 b6 bd
       0.06792025 -0.063349225 -0.033035353 -0.0893063
000350 81 42 0b be 68 ae 13 3e a1 b5 96 3e a0 66 01 bd
       -0.13599588 0.14422 0.29435447 -0.03159201
000360 15 17 26 bd bd 62 21 3e 7d 5a 91 3e 2e dd 10 3d
       -0.040549356 0.15760322 0.2838935 0.035367183
000370 49 02 d6 bd 25 a5 af bc 26 0b a5 bd b4 76 45 3e
       -0.104496546 -0.021441052 -0.08058767 0.19283563
000380 f3 b4 ce 3b a9 06 bb bb fd c0 47 3d 6a c4 0e 3e
       0.006308192 -0.005707581 0.048768032 0.13942114
000390 41 06 17 3d 24 34 2e 3e 52 4a 28 3d c5 54 0d 3e
       0.0368712 0.17012078 0.041086502 0.13801868
0003a0 a9 da 87 bd 2b 8d 82 3b 79 59 bb bd a6 21 78 be
       -0.06633503 0.0039841137 -0.09147925 -0.24231586
0003b0 22 7f 92 3e b5 7c 25 3d 6d 25 2b bb 24 b7 b2 bd
       0.2861262 0.040402133 -0.0026114837 -0.087263376
0003c0 39 ef a0 bd 7b 35 ff 3d 51 dd 3e bb 71 03 a7 3d
       -0.07858128 0.124613725 -0.0029123614 0.08154953
0003d0 d8 85 8c bc 83 c9 09 bd aa 17 c3 3d 4f 7b 11 bd
       -0.017153665 -0.033639442 0.09525998 -0.035517987
0003e0 d6 43 62 bd 48 11 88 3b 32 cb d1 3c 08 3c d0 bd
       -0.055240475 0.0041524507 0.025609586 -0.101677
0003f0 8d 94 00 3e 7a de f8 bd 94 64 9d bc 2e 3c a0 bb
       0.12556668 -0.12151809 -0.019212998 -0.0048899865

fc3.bias f4 [10]
000000 4a 02 ec be a9 48 07 bf cb 7e ad be 56 0e ed 3e
       -0.46095496 -0.52845246 -0.33885798 0.463
000010 ab 03 1e 3f 6d 9b 9a bd 14 9a 7f 3e 1a f7 92 be
       0.61724347 -0.07549176 0.2496112 -0.2870415
000020 21 a6 4d 3e 61 41 07 bd
       0.20082904 -0.033021335
